HW2/saved_params_25000.npy (npy, 836528 bytes, 1 tensors)

array f8 [104550]
000000 44 19 5f c8 02 6c e9 bf f3 91 1f da d0 66 b6 3f
       -0.7944349206452803 0.08750634503628145
000010 fc 4c 8d 36 2e e3 a4 bf 42 cc 45 46 38 7d e6 3f
       -0.04079574981610709 0.7027856228363663
000020 26 a1 c9 e8 43 e7 e0 bf 8c 98 6b f0 aa 16 f2 bf
       -0.5282306238778218 -1.130534114019187
000030 65 2f 5a 90 22 83 e6 bf e4 5d 40 c2 a2 bd c3 bf
       -0.7035076922779636 -0.15422472462590442
000040 16 c8 42 a0 e6 43 e7 3f c1 c9 d4 6c ca 97 f0 bf
       0.7270386819930106 -1.0370582820147407
000050 3e 50 2c 60 1d b4 d0 bf 56 dd 5f a6 e1 dc d1 bf
       -0.2609933318319725 -0.2791065335035986
000060 8e 9c 5a 68 df 9d ec bf 59 cc cf 9a 49 86 e8 3f
       -0.8942715681231606 0.766392519346833
000070 5f fa 38 7a 45 7e d1 3f d7 cc a8 d6 6d 95 f2 bf
       0.2733319943980969 -1.1614817032939777
000080 20 76 3e 7d aa 24 cd bf a7 30 a0 f1 2f c8 f2 3f
       -0.22768145671300122 1.173873847818905
000090 3c d2 83 3d e7 11 e1 3f 7f 50 ec 89 9b fc f4 3f
       0.5334354592765247 1.3116717708226415
0000a0 a3 f0 b8 cf 0d 06 e2 bf 5e 6c 11 5a cf 44 e6 3f
       -0.563239007671218 0.6958996543065827
0000b0 f6 21 a3 bb 07 d3 ea 3f 55 01 8c c7 5f a2 d3 3f
       0.8382605232991966 0.30678553092004296
0000c0 fb 6e 42 f5 01 06 e7 bf 4e e1 89 b8 43 0d f8 bf
       -0.7194833555435872 -1.5032384117640336
0000d0 a9 3f f4 f7 5f 8e b3 bf 99 64 b5 9a 68 4d df bf
       -0.07639121821944052 -0.4890996466470568
0000e0 86 2e 6c 56 70 be fb bf 59 7a 62 3a 16 76 e7 3f
       -1.7339938522226546 0.7331648960424203
0000f0 cc 46 58 35 57 21 cd bf af 1c c5 6b a0 4e ea 3f
       -0.22757997612693825 0.8220979790575224
000100 72 dd 27 aa 19 3e ea bf ed fd 00 fd 96 94 b4 3f
       -0.8200805972436866 0.08039230038502128
000110 16 0e e9 61 39 68 f0 bf c8 8d 6e 57 4f a8 f3 bf
       -1.025445349180591 -1.228591290980022
000120 52 3c b1 e7 f8 c3 cc bf 85 53 91 b4 9a 88 cf bf
       -0.2247305995283307 -0.24635633293896944
000130 5e b7 bf 75 73 aa e7 3f ff 1d 1d 40 7f f6 cb bf
       0.7395570087225953 -0.21845999365380916
000140 ed 61 f5 4a e3 1b f0 3f 82 40 60 b0 91 70 be 3f
       1.006808560187092 0.11890516811422638
000150 c7 9a 03 3c df db f4 3f 7f 44 cf 36 a9 57 c7 bf
       1.3036796898174303 -0.1823627011895361
000160 f4 81 3e cb ff f0 ca bf 74 72 30 cd c1 fa de 3f
       -0.2104797117617775 0.48405499494564386
000170 88 8b 8e de 1c 7d ce 3f 17 37 ce d1 b4 ba 79 3f
       0.23819313876182613 0.006281572653177545
000180 a3 c0 38 63 6f d1 e9 bf e9 f7 72 45 cb 67 76 bf
       -0.806815809051859 -0.005470079449137779
000190 52 38 b1 aa 27 15 c9 bf 4b aa 4c e1 d6 92 ce 3f
       -0.19595809778769763 0.2388561821074567
0001a0 c9 94 fe 97 35 86 e8 3f b5 97 b3 d7 08 34 f1 3f
       0.7663829773561243 1.0752037454453618
0001b0 9f b5 3a d3 9e 88 f6 bf 5d 61 d9 df c1 72 c8 3f
       -1.4083545924325802 0.19100211553701288
0001c0 42 0a 82 cf 1d db a4 3f e1 5e ed 06 d6 2e cd bf
       0.04073422582679999 -0.22799182260745623
0001d0 84 7b 1e 37 9a 4a dc bf 2f bc 1f 22 74 f6 df 3f
       -0.44205336935731787 0.4994173367730949
0001e0 65 38 cb 95 06 f6 d7 bf be 89 8a 24 2f ec bd 3f
       -0.37439121845534934 0.11688513414495724
0001f0 15 13 0c d1 3b 66 b2 3f 14 17 2d 87 8e e0 d0 3f
       0.071872461831003 0.263705856330817
000200 71 8d 1c 01 0b 4a f6 bf f8 a8 4c 63 ee 6c e4 bf
       -1.3930769008082644 -0.6382972659532973
000210 70 f4 83 75 4a be e3 3f 6b 8b 08 36 81 71 fc bf
       0.6169788642142873 -1.7777111159018328
000220 c2 3a 58 33 bb c7 e2 3f 53 9b 7d 26 ce 59 92 bf
       0.5868812563729409 -0.017920704936297337
000230 78 18 5e da c3 ae b9 3f 62 e6 4e b7 79 b0 cb 3f
       0.10032295304526595 0.21632310343356936
000240 f8 39 c7 8b d5 45 f7 3f 9d d9 bd 7c 35 5f e9 3f
       1.4545493564688723 0.7928721844062242
000250 08 ea 7e 88 b1 84 f5 bf 1e bb 25 ce 45 53 c6 3f
       -1.344895871340329 0.17441628042021134
000260 5f 65 5b bc a6 63 c3 3f e2 51 a9 35 1e ef ed bf
       0.15147861668701076 -0.9354392097544031
000270 84 c6 8e 5e bc a1 dd bf 91 a5 63 60 3c 0c e3 bf
       -0.4629965709128572 -0.595243633518452
000280 04 f8 b1 37 e9 e3 f0 3f 7d 59 4f 01 69 30 a7 bf
       1.0556423354714761 -0.045291215333850034
000290 07 89 4f e7 9f 18 fa bf 0f de eb 0b 10 fa 00 c0
       -1.631011870915758 -2.122100918899157
0002a0 59 02 85 36 b7 45 bb 3f e8 56 cc 5e de 63 e6 3f
       0.10653252678913229 0.6996909953620305
0002b0 9a 64 3d 61 f8 bb fb 3f f1 fb db 42 3e 42 e7 bf
       1.733391170352013 -0.7268363290639838
0002c0 24 4d e9 ca a2 84 b5 bf d6 cd 28 7b 57 fb dd 3f
       -0.08405511335267996 0.46846568133625277
0002d0 b5 3b 9c 91 77 d0 ef bf b7 9a 05 de fa be fa 3f
       -0.9941976398421192 1.671625964425102
0002e0 79 3d 46 bd df 0d c5 bf fd 9a 08 44 5e 0f e6 bf
       -0.16448590032494417 -0.6893760041028539
0002f0 ca a4 e0 f2 eb 2a dd bf 52 c3 48 0c 9e c4 e4 3f
       -0.45574473112590097 0.6490011444021582
000300 4f 37 e2 bd ba 7f cc 3f 8c fc 39 7b 9d 56 e4 bf
       0.22264799377119934 -0.6355731398360986
000310 6d b3 f1 49 97 ea e1 bf a5 a8 a6 ed bd fd d1 bf
       -0.5598865932675899 -0.28111217697245144
000320 92 e4 02 2e 74 e2 d8 bf 19 a5 90 a2 1d c8 d2 3f
       -0.38882164471903835 0.29346409678926616
000330 7a d0 25 21 4b 43 fc bf 68 39 a7 cd 90 b8 d8 bf
       -1.7664290709335817 -0.3862649925548767
000340 c6 27 ab cc 53 a4 75 bf fe 6b cc f7 08 83 fb bf
       -0.00528366789030516 -1.7194909743909643
000350 62 59 60 86 33 15 f1 bf 58 3c c8 06 46 03 fb 3f
       -1.0676760911061014 1.6882992043427034
000360 e4 c1 6f 8c fb e5 be 3f 28 4c 0a d5 ce 63 b8 3f
       0.12069675615908398 0.09527294827630384
000370 4a ae 73 50 ff ee c2 bf 8e d9 fa 34 a2 32 cf 3f
       -0.1479186194259106 0.24373271548183734
000380 03 43 16 20 74 33 f6 bf 56 b4 1e 3e 45 64 fe bf
       -1.387561917628944 -1.899480097442639
000390 84 71 91 e0 8b 3c de 3f 24 74 7b 56 60 32 d5 3f
       0.4724454587028719 0.331199726538957
0003a0 5a 5c 85 65 4e 1a ca bf 75 09 6f 36 d5 8b f6 bf
       -0.20392780263020677 -1.4091388822858708
0003b0 66 ac 1a b6 13 76 ed bf b9 8d 39 8a b6 3e d5 3f
       -0.9206636959764978 0.3319527006007906
0003c0 ee 09 70 bc 36 34 96 bf 74 37 a5 43 cd ab c4 3f
       -0.02168355488903189 0.16149297526356643
0003d0 89 5f 39 51 13 1d e6 3f cf 7f 62 64 32 52 ec bf
       0.6910492502602078 -0.8850337944641015
0003e0 b3 2c ed 58 ca 91 bf 3f 55 85 57 3a ba 3a ed bf
       0.12331833525711282 -0.9134188785066423
0003f0 3b 02 dd 1f ed d6 e3 bf b8 c9 58 f5 3c a6 f1 bf
       -0.6199861166315438 -1.1030854781971424
000400 56 45 80 e3 4e c7 ef bf f0 3a 50 46 5e 8b c5 bf
       -0.9930796092395819 -0.1683156817748208
000410 43 9e 46 96 e5 4f d3 3f 54 19 d8 0c b7 d0 f7 bf
       0.301751515153658 -1.4884558202480394
000420 5b f2 fd e8 4c fd fe bf f7 29 75 43 f0 74 bd bf
       -1.936840925335807 -0.11506559035220919
000430 90 39 6c f7 44 3d f5 bf 66 76 ad e1 e1 53 f7 bf
       -1.3274583497000982 -1.45797908931072
000440 7f 91 92 01 f2 be ea 3f cc eb 56 1b 48 56 c9 bf
       0.8358087568963554 -0.19794560751856094
000450 5f 02 89 f1 2d 75 ef bf ee 2b 18 33 b1 ee dc bf
       -0.9830541341289737 -0.45206861486138805
000460 00 a0 9a d7 61 a7 e9 3f 58 07 23 07 c1 f3 d5 3f
       0.8016823969855977 0.34300256440120824
000470 2c 5f 5c f1 93 06 d3 bf f4 cd a9 80 c1 0a e1 3f
       -0.29727648325341494 0.5325629723506027
000480 57 5c 74 db de ca f5 bf 55 5d 4f 7d bd 9d e0 bf
       -1.3620289394800886 -0.5192553946934974
000490 58 5d 3b e4 14 32 9a bf 34 b2 a4 78 4a e9 ba 3f
       -0.025581671171349768 0.10512223668474335
0004a0 3d 76 94 bb 32 b8 d7 3f e0 31 e7 49 bd 17 de bf
       0.37061756437637766 -0.47019893853283
0004b0 2e 5f d1 99 2a 36 e0 3f 80 f6 00 50 73 fb 93 3f
       0.5066121105437327 0.019513894804040977
0004c0 2e 29 e6 c6 1d 76 ca bf e3 ed b9 ba a7 68 d3 bf
       -0.20672962390774202 -0.3032626460551155
0004d0 8c a1 bf cf 83 02 d5 bf 00 84 69 27 c1 d3 08 40
       -0.3282784966272849 3.103395755679685
0004e0 98 45 d4 3f d5 9f ef bf 73 0b 76 ce 8f 1a c0 3f
       -0.9882608648933227 0.12581060010060305
0004f0 ca 43 5d d9 23 43 e7 3f c9 db 93 b8 16 4b d3 bf
       0.7269458051106252 -0.3014580538287502
000500 c8 1a e0 72 05 e1 d1 3f 60 1a b0 18 ce 18 eb 3f
       0.27935920923520685 0.8467779619393916
000510 c0 ad 8b 18 f4 80 e9 3f 9b 1c 66 8d 9d 6e dc 3f
       0.7969913939863815 0.4442514305923823
000520 26 35 66 4a fa c1 f4 bf 65 10 d2 43 71 91 fb bf
       -1.2973578363629001 -1.723008408474038
000530 c0 ba 81 a6 f5 57 bb 3f b0 9c 26 fb 44 2a f3 bf
       0.1068109065542826 -1.19781969171326
000540 7d e3 75 d7 d9 e5 ec 3f b5 22 3e de 2d 92 ce 3f
       0.9030579765522898 0.23883603431410952
000550 4f 63 22 5b 14 1c e4 bf 08 04 82 32 3b 96 d7 3f
       -0.6284276752440777 0.36854438717279026
000560 e4 92 ef 00 f8 b8 ec 3f 80 b5 6b 07 1e 38 d7 3f
       0.8975791948583631 0.36280012821847407
000570 d5 a5 f8 c8 1b 22 08 c0 1e 14 e5 37 82 0a f1 3f
       -3.016654558265808 1.0650655921356313
000580 cf 91 82 cc 94 9e d4 3f 52 7d b2 d3 7c 1d b1 3f
       0.32217903110202156 0.06685619514836574
000590 18 0e ff 14 fc fd e6 bf 00 23 25 f2 8a 80 aa 3f
       -0.7185039911350399 0.05176195340988521
0005a0 a4 73 fe 38 83 65 e8 3f 02 f2 60 7d a2 26 c1 3f
       0.7623916733897329 0.1339915382576607
0005b0 c3 b1 94 a4 1e 15 ed 3f 56 61 84 3d 3c 11 c5 bf
       0.9088280882329446 -0.1645884800316348
0005c0 00 89 7d 27 d9 2c ea 3f 22 fe 57 58 84 81 ea bf
       0.8179746409698794 -0.8283101773703871
0005d0 7c 2a 89 88 7a b2 ea 3f b4 0a 46 3b bd 26 02 c0
       0.8342869440760547 -2.2689156180143417
0005e0 17 32 64 76 0d f0 d1 3f ab b1 41 bc a9 8f e0 3f
       0.2802766472021018 0.5175369908225113
0005f0 11 b6 60 23 df 1f f5 3f 07 6a 5c 99 68 ae d5 3f
       1.3202811605400522 0.33877005554828127
000600 a4 6f 0c f6 cc 6a f2 bf d3 9e 97 8f 6f 17 e0 bf
       -1.1510743724129293 -0.5028608135735005
000610 f4 6c f5 f1 4a 0e 7b 3f e6 9f 53 c7 dd 1e bb bf
       0.006605427507874174 -0.10593973270772458
000620 f0 ad eb f7 19 7c d4 bf 42 a4 af 81 d4 65 bf 3f
       -0.3200745507335503 0.12264755407490305
000630 cc 88 ea 0f 97 06 f1 3f 3a dc 14 1a 07 71 ec bf
       1.064108907864056 -0.8887973317531597
000640 7c 41 e0 48 d8 24 ed 3f f8 56 5d 6e 40 79 f2 bf
       0.9107476638182983 -1.1546024619214545
000650 c4 b3 61 7f 2f 34 cd 3f b9 77 ce 65 47 7c f2 bf
       0.22815507621581166 -1.155341527635285
000660 8b d8 ae ae 71 6e c1 bf 35 50 65 bc e8 c2 ca bf
       -0.13618298558657602 -0.20907315444003563
000670 eb b4 e1 92 19 d2 f2 3f dd e2 05 8a 9b 9e f8 3f
       1.1762939202847587 1.5387225524447594
000680 84 97 e4 8f 93 9b e5 3f 50 9b 7a d5 7e 9f b1 3f
       0.6752412615212369 0.06883995735061643
000690 d6 47 1e 8b 29 e2 e1 bf 15 78 4e 93 c4 6e e3 bf
       -0.5588577000764825 -0.6072714688377824
0006a0 27 77 ee eb e4 f9 e9 3f 8f 35 29 39 ce c2 f8 3f
       0.8117546661412448 1.5475599511003997
0006b0 45 b5 c8 f7 07 01 ca 3f f2 1e cd 72 46 5b d8 bf
       0.2031564674265757 -0.38057099543628603
0006c0 94 27 fe 64 f5 b7 d7 3f 33 28 20 ba 25 43 d5 3f
       0.3706029402024964 0.3322233502991622
0006d0 93 1d 6e 6b 3a bb cc bf c2 2c d4 2c ec 20 cb 3f
       -0.22446375127422566 0.2119422167673744
0006e0 d9 c7 0d 3c e7 e3 e2 3f 74 3b 59 4b 8b b2 e2 bf
       0.5903202221800213 -0.5842949363376264
0006f0 da 4a 18 f0 c1 c2 eb bf d0 13 fc aa 4f 82 d7 3f
       -0.8675241174081194 0.3673285646221389
000700 80 12 c8 99 8e 9f e3 bf dc 64 19 f7 2c 9a ea 3f
       -0.61322717700439 0.8313202692180783
000710 42 06 b5 9b b4 7b da bf 92 a8 1d d5 33 bd e5 3f
       -0.41380038457655044 0.679346004716779
000720 53 6a 57 77 92 a6 d8 3f 21 c5 59 51 d6 55 e3 3f
       0.3851667561954503 0.6042281712417755
000730 a8 5d 1a ba 0d 94 d3 3f a0 56 a4 e1 08 39 e6 bf
       0.3059114758884456 -0.6944622428006433
000740 14 d7 30 da 19 4a e6 bf 16 98 ea b0 0b db ee bf
       -0.6965455304659565 -0.9642389731786831
000750 2e b6 68 d9 53 ed e9 bf f2 23 bc b4 62 fb e9 bf
       -0.8102206465025057 -0.8119367151240324
000760 72 02 c7 71 70 e4 f0 3f c1 0a ff 20 24 ca cc bf
       1.0557712978772114 -0.22491885768075373
000770 db f8 24 18 f5 35 ea 3f ec 03 a1 a0 22 5d a6 3f
       0.8190865966387507 0.043679315670040214
000780 d6 c8 08 db 2e 1b dd 3f c5 4a 72 38 45 49 bf bf
       0.4547841204649904 -0.12221176746451608
000790 a8 b8 fd 15 0e 7b ea bf c5 25 b9 12 ce 26 f7 bf
       -0.8275213651193285 -1.4469738704086563
0007a0 5c 10 31 f1 59 00 ed 3f ae 5d 64 76 b1 d5 d8 3f
       0.9062928877615479 0.38804279863094393
0007b0 31 1a 78 c2 d3 df e0 3f 0c 53 f8 65 41 ff c2 3f
       0.5273226545548991 0.14841477850918527
0007c0 e5 64 74 b6 78 d8 ff 3f e8 0e 1a 8f 94 dc f4 bf
       1.9903494956145604 -1.303852614394538
0007d0 29 30 e0 c0 7e fc eb 3f 44 b5 ff 68 b9 c4 d1 bf
       0.8745721594909855 -0.2776320958499421
0007e0 0f 41 c1 3e ef e2 fe bf 73 91 51 33 56 2c e4 bf
       -1.9304039431918374 -0.6304121973339946
0007f0 77 e3 7f 9c f6 a3 a2 bf f8 c9 64 e4 81 d1 f6 3f
       -0.0364071908988483 1.4261492654446766
