HW2/saved_params_5000.npy (npy, 836528 bytes, 1 tensors)

array f8 [104550]
000000 b3 3e 0a f8 b7 89 f2 bf 0d 8a 84 ca d8 aa bb 3f
       -1.1586227120459796 0.10807566589623026
000010 e6 4c 89 61 52 a3 b7 3f 13 9e 8f 8a 55 37 f1 3f
       0.09233584290750549 1.076009312871865
000020 94 0b ff 3b 13 71 e3 bf 99 be 39 2c 68 32 f4 bf
       -0.6075531169702679 -1.2623063781319728
000030 60 df e6 a1 04 1d e0 bf 1d 04 c5 e7 bf b3 94 bf
       -0.5035422479768208 -0.02021694042310084
000040 bc e6 f4 36 03 13 f5 3f b6 36 9c 56 4c bf ef bf
       1.3171417376274084 -0.9921018306356106
000050 3f ad 32 df 2b de d5 bf cb 6b 6c 16 6a af e2 bf
       -0.3416852645556964 -0.5839128911933299
000060 db 3c 77 64 84 9c e4 bf 42 bd 2e d5 b4 df f1 3f
       -0.6441060983869663 1.1171158149189329
000070 47 66 3e 98 86 4d c3 3f eb cd af 79 8b a6 f3 bf
       0.15080339845444454 -1.2281603577983968
000080 8f 47 e6 ff 80 8c bf 3f 40 01 af 2a 3b 86 f2 3f
       0.12323766944453339 1.1577712695435167
000090 5f 10 ec 73 a7 f3 d7 3f 09 e6 c0 9e 8e f3 f5 3f
       0.3742464668323517 1.3719621850308406
0000a0 79 1d ec d2 de cf ef bf 6d 57 74 af dc ee c4 3f
       -0.9941248054100661 0.16353949133980042
0000b0 72 ec aa ef 74 8c e5 3f 62 3d 0f c7 68 a0 d3 3f
       0.6733956032761752 0.3066656059208609
0000c0 b7 1a 83 3f 6d 92 e8 bf 01 0b 91 75 01 63 f8 bf
       -0.7678743591757983 -1.5241713135189345
0000d0 e6 0c 94 f7 1b 93 cf bf 9b 3e 89 44 74 f8 e5 bf
       -0.24667691792283292 -0.6865788782688073
0000e0 a9 f8 17 da 1a 09 fd bf e7 ad d1 9f c3 98 e8 3f
       -1.8147228736193404 0.7686479684320461
0000f0 78 36 74 0e 02 f7 d0 bf 70 13 c6 0f bf 23 df 3f
       -0.26507617389220384 0.48655678310779304
000100 43 10 a2 29 f9 4b ef bf d6 f3 df 05 7e a9 e3 3f
       -0.978024083437511 0.6144399752371281
000110 f2 34 04 8f b1 f6 ec bf 30 85 61 e6 4f 5c eb bf
       -0.9051139634408669 -0.8550185680034357
000120 9e 19 00 75 8a e4 c4 3f f4 2a 0b 52 05 ab c6 bf
       0.16322451317701064 -0.1770941401103624
000130 b0 b3 71 19 21 a9 f0 3f 68 41 d0 c2 7f c8 c8 bf
       1.0412913316642793 -0.19361874592187722
000140 69 c3 58 ad bd fe f1 3f 28 65 85 a2 12 03 e1 bf
       1.1246926089626987 -0.5316250967254392
000150 c0 ce 05 d3 d1 e1 fc 3f 2e c9 e0 0d 0e 47 b3 bf
       1.8051317446778938 -0.07530296171970427
000160 4f 6f e7 1c 03 38 cd 3f cc 9f fe 9d 17 b9 e3 3f
       0.22827185546236214 0.616344269355062
000170 27 fa 13 2c a3 29 e6 3f 98 97 74 84 a4 e2 c3 3f
       0.6925826893710266 0.15535408465910616
000180 31 7d 80 25 3a ab f1 bf 98 48 1a 5a 97 24 af 3f
       -1.104303499690854 0.06082604384313689
000190 f3 27 b8 20 f3 7a c4 bf 04 29 ee 47 8d 8a c3 3f
       -0.16000212762474994 0.15266576778623897
0001a0 27 04 71 ac 93 e4 e2 3f 83 68 31 d8 da b5 f1 3f
       0.5904024475095228 1.1068981595076657
0001b0 22 7a 43 99 da 9a fb bf 48 b3 ca 2c 28 19 e3 3f
       -1.725306128202313 0.5968209147300536
0001c0 29 26 9d 47 6d de e2 bf fc fd 5c 85 f1 d1 cb bf
       -0.5896517180164597 -0.21734446536900964
0001d0 f3 83 bd d7 1b 5a e8 bf 8c d6 5d 69 af b3 d0 3f
       -0.7609996045758848 0.26096711435034403
0001e0 7c b1 87 98 63 e7 e6 bf 42 ca 13 03 b8 d5 a0 3f
       -0.7157457331755235 0.03288054502072103
0001f0 40 79 46 5b 4e 31 d0 bf ae 95 2f 42 92 36 cf 3f
       -0.2530094043121558 0.24385288459522542
000200 ea 34 bd 31 31 33 f9 bf be 4d 12 bd be 1e e0 bf
       -1.5749980872090483 -0.5037530606081686
000210 08 1e ef f8 a4 f9 e6 3f bd 47 ee 31 40 be f9 bf
       0.7179741727822497 -1.6089479399129083
000220 da 9d d3 bf 86 7e e0 3f 24 e3 61 49 ff 93 df 3f
       0.5154451128591362 0.49340803304908065
000230 7f 1e 6f 46 7a be d6 3f 7a f0 1a 73 14 d5 cd 3f
       0.35537583235097964 0.23306518192646647
000240 f4 45 a7 05 0b 8f f8 3f ce 1a d5 80 42 15 c6 3f
       1.5349226208530782 0.17252379694601533
000250 43 f6 50 67 08 6f f8 bf 93 62 da 23 8a b1 b5 3f
       -1.5271076236525836 0.08474028945273408
000260 30 06 bb 86 69 00 dd 3f 92 a4 70 0b 8c 7f 9f 3f
       0.45315015942842063 0.030759990881197803
000270 6b 39 62 82 94 22 d9 bf 66 3f 64 4e 59 9f dd bf
       -0.3927356026914796 -0.4628508821051497
000280 74 79 f9 b7 a9 73 f3 3f b0 c7 a9 b3 36 be db bf
       1.215738028192928 -0.4334847216151685
000290 ec ee 83 e0 01 e9 f9 bf 14 f9 2a 9c 44 bf fd bf
       -1.6193865556842253 -1.859196290999141
0002a0 d5 da b0 8d 3b 25 c2 3f c3 97 7e 7c 8e 6e e3 3f
       0.14176124971864704 0.6072456771405473
0002b0 7d 11 d8 bc dd ae fd 3f 11 9d 89 8b 1b aa dc bf
       1.8551919342727097 -0.44788254381860876
0002c0 1c 55 32 90 26 11 b0 3f 30 bf e8 07 0b 9a d9 3f
       0.06276169796395376 0.40002704403285616
0002d0 97 24 de 3d e4 b7 f6 bf c0 3d 35 46 73 37 fd 3f
       -1.419895402594454 1.8260376684664692
0002e0 36 fa ee 4f 88 01 ce bf ce a5 9f a5 1a 88 e8 bf
       -0.23442176726344294 -0.7666142687641526
0002f0 01 59 3c 43 92 3a e3 bf 22 3e fb 8f 80 6d e7 3f
       -0.6008998215864098 0.7321169674050376
000300 6f e7 f8 ab f1 e1 d6 bf 82 72 6f 0f 33 8d e0 bf
       -0.35754052919548135 -0.5172362615081314
000310 90 c3 84 5d 75 94 e5 bf 44 82 85 2f 6d f4 c0 bf
       -0.6743723703894933 -0.13245930500399272
000320 72 50 59 08 8e 94 e2 bf 53 b5 8e 84 ce df e1 3f
       -0.5806341326774727 0.5585701550495891
000330 39 0a 5e fa 04 a9 f7 bf 73 4b 39 3b 00 e1 de bf
       -1.4787645130133014 -0.4824829653127189
000340 96 ff 76 f5 22 86 f0 bf dc cf 1b 6a 7c 19 f4 bf
       -1.0327481831045353 -1.2562221665257232
000350 d1 74 ef 5b e5 d4 d6 bf c0 fa 5a cf d2 59 fb 3f
       -0.35674413660110554 1.709429559690463
000360 db fe 00 c1 a0 85 d6 3f 96 16 df 81 ec 60 d5 3f
       0.35190600250278486 0.33404076273687033
000370 2f 6b 3b 85 20 82 d0 bf 43 00 fe 88 90 bb eb 3f
       -0.2579423237890976 0.8666460681561222
000380 bf 78 29 46 4b 27 fb bf 8e a9 ad 12 18 c7 f7 bf
       -1.6970932713225435 -1.4861069421409385
000390 41 71 9b 71 06 29 e2 3f 7a e7 92 8f ab 34 db 3f
       0.5675079554453434 0.4250897314155889
0003a0 db 99 b0 fb bc 54 c5 3f ab b5 64 f6 b2 7b f3 bf
       0.166648505111154 -1.2176999687902519
0003b0 14 eb 70 f1 f3 fa f4 bf 4a 12 72 2b 4a f6 e3 3f
       -1.3112677985470258 0.6238146637484274
0003c0 d2 dc d8 6c e7 ef df 3f f1 bc 8e f7 c3 8c da 3f
       0.499017578407302 0.41484164405387874
0003d0 f3 63 04 32 7f 9f ea 3f a3 bb 45 52 f5 c9 f3 bf
       0.8319698311707938 -1.236806222321072
0003e0 47 66 33 29 85 f7 c0 3f 88 b3 21 88 c0 7d e7 bf
       0.13255371581799322 -0.7341005953618245
0003f0 4e a6 c5 cf cc ac ed bf bd d2 67 ab c1 88 c2 bf
       -0.9273437555359096 -0.14479847783481672
000400 c0 57 b4 23 4b 5a ed bf 36 39 51 d9 6d 5f d2 3f
       -0.9172721574166118 0.28707452986136006
000410 0e 39 4f 20 18 b3 da 3f 9f af ed 49 94 56 f9 bf
       0.41718104510518195 -1.5836375129538067
000420 11 fb 54 52 22 41 fc bf 3b f5 18 0d 06 17 ed bf
       -1.7659018722621946 -0.909060502606429
000430 c2 ef 4a d8 8e 12 f4 bf f5 a3 d3 08 3e d1 f5 bf
       -1.2545307587561045 -1.3635845513147136
000440 88 dc 2a 7f 56 1a ee 3f f4 f6 f8 6b e0 db d8 bf
       0.9407150729883975 -0.3884202055377124
000450 1d ce e1 3c dc f7 e9 bf 98 a6 32 a9 86 95 d5 bf
       -0.8115063847639622 -0.3372513439486311
000460 ba 50 5e a1 8b cd e6 3f 14 2d 5e 7c 23 a9 75 3f
       0.7125909949995937 0.0052882562794238815
000470 72 55 ea 88 8e cc bf bf cf ff d0 0c db 3c e6 3f
       -0.12421503870640097 0.694928669960058
000480 8b ca b2 87 cf 43 f3 bf 05 7c 78 6b 69 65 db bf
       -1.2040553379744405 -0.42806468482189103
000490 ea 0a 42 1a d2 ed e2 bf 4a 0e 7a f3 48 84 d2 3f
       -0.5915308487750199 0.2893240335181174
0004a0 da 03 26 a6 19 b3 dd 3f 16 0e cc 5e 84 fd d1 bf
       0.46405640817107285 -0.28109845407036127
0004b0 34 65 9d 81 d4 b2 e4 3f 2b b5 ef 02 fd 45 a0 3f
       0.646829846528965 0.031783968552057416
0004c0 eb fc 39 dc b7 13 dd bf aa 88 d4 6b 39 e7 d8 bf
       -0.454328503670651 -0.3891128113774679
0004d0 e6 40 ac 34 e1 67 e8 bf 1d 7d 17 f9 1d 2a 08 40
       -0.7626806286589527 3.020564981488532
0004e0 df be 7c 62 62 86 f0 bf 2b e6 bc e3 9b f3 ad bf
       -1.0328086707267443 -0.05849921374324326
0004f0 ac 95 b5 8a 6d b3 ea 3f ac 02 c3 90 bb ac d6 bf
       0.834402819553977 -0.3542927659691866
000500 3d df f8 24 31 d3 c8 3f e1 2e 75 e1 19 f5 e1 3f
       0.1939450674560649 0.5611695674392331
000510 87 31 ea 65 81 b8 d3 3f 4a a0 bc 92 9f c9 e5 3f
       0.308136319662275 0.6808622232392818
000520 c9 72 2d 5d cf 97 f4 bf 02 38 3b d9 6a da fb bf
       -1.2870629920718548 -1.7408245549772805
000530 27 4f 3b fb cf bc d5 3f f0 92 f9 05 d4 93 f4 bf
       0.3396491959986058 -1.286090873088309
000540 21 df f7 7a 7a f5 ed 3f d9 3d 4f d7 ce 2e df 3f
       0.9362156297420122 0.4872319319374277
000550 8d 4c 21 1a ff b8 e0 bf db 22 aa be e5 91 cf 3f
       -0.522582579646398 0.24663993654055258
000560 ee be 8b 02 12 d7 ee 3f 96 a6 12 cc e6 89 c1 bf
       0.9637537049984226 -0.13702092136854976
000570 be bf f9 ea 1d aa 09 c0 6b 56 f3 46 82 06 f2 3f
       -3.2080648763148636 1.1265890857224814
000580 54 37 89 8a 0b 75 c0 3f fb 1a 3c 43 2a 9c d6 bf
       0.12857193245366239 -0.3532815605725969
000590 34 aa 9f e3 9f 1a ee bf 54 42 49 22 14 b5 a3 bf
       -0.9407500692153179 -0.038490895448039325
0005a0 91 2b 80 ea 5c c0 e9 3f 09 d2 5b 0a f8 23 cf 3f
       0.8047318058100804 0.2432851839618169
0005b0 58 79 8f 35 27 3a ee 3f ce 81 29 7f 2a 76 d2 3f
       0.9445987745382736 0.288462280446791
0005c0 34 c6 50 c3 16 b7 f1 3f d4 2b ca da 73 05 df bf
       1.107199442816989 -0.4847077976816625
0005d0 f1 8a 2e ce f5 5b b7 3f 3b ce 0d 96 5d db 01 c0
       0.09124695094810044 -2.2321120951617366
0005e0 77 51 c7 6e de 0a bc 3f 50 c9 3c 38 b9 5c e6 3f
       0.1095408459144148 0.698818788374675
0005f0 31 4b c8 2e 7f b4 f1 3f 05 db cd cb 4e ba cc bf
       1.1065666034161945 -0.22443566275952534
000600 72 2d b0 ac ee 3f f4 bf 29 cd a0 0c e4 ba c9 bf
       -1.2656084771759564 -0.20101595512969908
000610 76 f7 74 04 4e 2e c6 3f 32 00 ae 4f ac 76 8d bf
       0.1732881089937412 -0.014386507207518748
000620 e7 fb 4f 5f 1d 09 b3 bf 98 4f 36 b0 5c 3b a1 3f
       -0.07435782982791715 0.0336560216047978
000630 be 07 92 85 9a b2 ef 3f 94 b7 a7 b0 07 7b f0 bf
       0.990552197341678 -1.0300366306869124
000640 90 4d 88 51 20 cb ee 3f bc 15 e0 6f 02 bf f5 bf
       0.9622956840925543 -1.3591331834917204
000650 0f e6 f7 99 75 c2 cf 3f 2d d6 a7 fc e7 f1 f2 bf
       0.24812192934022945 -1.1840591306075894
000660 fc 2a 50 f9 45 37 d3 bf 95 e1 97 01 0e ab b0 bf
       -0.30024861666667824 -0.06511008776568013
000670 f0 5f 88 bb 24 ca e2 3f 86 12 de bc 40 2c f7 3f
       0.5871757185695952 1.4483039262424042
000680 c0 02 df f6 a4 c5 bc 3f f4 0c 85 d3 bf b3 dd 3f
       0.11239081408622109 0.4640960279104569
000690 09 85 0b 71 df 0c c3 bf 78 5f 9f c1 2d 41 8e bf
       -0.14883034724974945 -0.014772756072417556
0006a0 4a 9a 32 f5 4a 94 ea 3f 79 08 97 88 13 3f fa 3f
       0.8306021489159516 1.6403994880243131
0006b0 7a a3 bb e9 0a 47 d4 bf 0e a3 1b 5e 8b 3d d6 bf
       -0.3168360979603261 -0.3475063723586097
0006c0 86 1f 04 25 64 b1 dc 3f bb 4d d4 e2 24 48 e6 3f
       0.4483270989880953 0.6963066511402113
0006d0 cb 42 2e 3b 63 0d ce bf 41 e0 24 90 96 c9 d9 3f
       -0.23478355779345458 0.40292896343772006
0006e0 f4 ce 93 9c 7b d5 ed 3f 8f b4 d3 73 7d 0a ce 3f
       0.93230991918105 0.2346951308785816
0006f0 cb 95 d5 36 66 80 db bf 21 95 65 20 43 be a3 3f
       -0.42971186976350556 0.03856096048802216
000700 f9 45 48 10 4d ce de bf 1a c5 73 50 05 72 e4 3f
       -0.48134161558218086 0.63891854966474
000710 2c 37 53 36 6e bd d7 bf b3 1a 02 cb 6c fd d9 3f
       -0.3709369211691065 0.406092832803931
000720 50 39 4b ed 88 b7 e2 3f 40 1b 54 60 74 3a c3 3f
       0.5849041590352417 0.1502213926653102
000730 df 75 98 3c bc e7 d5 3f c3 d8 53 1a bf 49 ef bf
       0.3422690002206234 -0.9777522577485559
000740 7f fa 43 5a bd 49 e7 bf ad 2c 82 30 05 f1 fa bf
       -0.7277514231680725 -1.6838428397048049
000750 02 a6 40 2c 5d de ea bf 53 54 fa b2 56 e6 e2 bf
       -0.839644037657479 -0.5906175132428281
000760 e5 dc 1b 0f 44 8f ea 3f 28 25 48 59 20 b5 be bf
       0.8299885077566641 -0.11995126895648822
000770 7a 84 df 0d f0 69 e7 3f 63 b0 a5 a4 32 b5 bf bf
       0.7316818495711594 -0.1238586093874701
000780 38 49 fd 5b 63 45 b4 3f e6 9b 33 1f ac aa cf bf
       0.07918377872309612 -0.24739600680842883
000790 78 26 fc fb 44 2d e5 bf 8c a1 0b 99 e8 9b f7 bf
       -0.6617760583478249 -1.4755636194550759
0007a0 f8 47 a9 07 9a 38 e9 3f ed 00 f3 8e cb 38 d6 3f
       0.7881593846925616 0.3472165008534052
0007b0 63 9b a0 a3 f4 b5 e8 3f 8c 1f 3e bb e7 f5 b3 3f
       0.7722113796088305 0.07797096558908673
0007c0 8b d5 e2 3d a6 4a 00 40 25 3d 33 dc 99 5a f4 bf
       2.036449893460206 -1.2721193887298992
0007d0 45 3d ca ee 92 23 ab bf c6 8a b9 12 df b8 e2 bf
       -0.05300578274647675 -0.5850673070638883
0007e0 30 7b a3 c1 92 a5 fd bf d2 a2 c7 02 f1 29 e4 bf
       -1.8529231609351875 -0.6301198057454604
0007f0 07 41 45 c8 71 3e 9a 3f 26 7b b9 a8 97 34 e8 3f
       0.025628831718962377 0.756419972934826
