HW2/saved_params_10000.npy (npy, 836528 bytes, 1 tensors)

array f8 [104550]
000000 1c d4 f5 83 4f ff f1 bf 94 df bd 27 c4 0e b0 3f
       -1.1248316912363014 0.06272531481033489
000010 1a ec f2 69 13 cf 95 3f 5e 40 50 72 90 b7 ef 3f
       0.021297744123085584 0.9911577446637343
000020 fb 9b ed 39 aa 78 e0 bf 6a 32 f8 8a 8c a2 f0 bf
       -0.5147296077165032 -1.0396848133560987
000030 59 3d ab 89 57 a8 e4 bf 3a 0c d8 ac 2c 96 b9 bf
       -0.6455495537610815 -0.09994773120711012
000040 8e b4 e6 46 09 ac ec 3f 85 b1 b5 b3 8f 7d ee bf
       0.8960005173481862 -0.9528273115115985
000050 bd 75 18 21 7b 94 df bf a1 56 92 64 8e 5b da bf
       -0.4934375594328591 -0.41183814832161586
000060 40 f7 0d 05 f6 de e8 bf d5 72 e9 93 99 08 ee 3f
       -0.7772169207307584 0.9385497940926039
000070 63 e4 1b 04 47 8e c5 3f 08 33 63 48 a0 05 f3 bf
       0.16840446186668875 -1.1888735606800669
000080 cb 51 1e d4 12 f1 c0 bf 52 6e 4e f9 d3 9d f2 3f
       -0.13235698087068068 1.1635322321443664
000090 a6 18 bc c9 9c 4f df 3f 8c 01 21 20 2d 35 f7 3f
       0.48923415852221763 1.450482488158829
0000a0 d3 ec 9b 49 fd 5d e9 bf 89 03 8f cb b0 58 dc 3f
       -0.7927233159711257 0.44291324499868573
0000b0 48 13 48 d5 e8 87 e6 3f 38 a8 a6 82 0e ff cd 3f
       0.7040905156760369 0.23434621219104357
0000c0 96 0f 69 5e 83 9a e8 bf 6e f1 20 2b f3 74 f7 bf
       -0.7688614696457872 -1.4660522160257545
0000d0 1a 9f c5 a0 88 3e c2 bf 76 22 11 48 e7 b3 dc bf
       -0.14253337717240627 -0.4484804347780832
0000e0 5a bd 63 c8 ee 11 fc bf 56 10 4d 24 20 02 e7 3f
       -1.7543781116217674 0.7190094670300009
0000f0 f0 24 1e ef 1e 38 c9 bf 54 d7 2d 46 62 23 e5 3f
       -0.19702517200156633 0.6605693216977024
000100 e0 b2 06 95 65 a8 eb bf af 90 d0 52 ad 76 db 3f
       -0.8643062506358454 0.42911847197889136
000110 9c 9c 0b d1 1b 49 f0 bf 41 4d 00 ef ab 2f f0 bf
       -1.0178487935861886 -1.0116385780318782
000120 c4 66 c5 9b f8 c1 b3 3f 34 c4 fe a7 c3 ec c5 bf
       0.07717851450925212 -0.1712879724778148
000130 95 22 eb a0 cc 09 ec 3f df 9d ed e2 b0 77 c8 bf
       0.8761962073268302 -0.1911526783035091
000140 f6 a6 f3 57 04 da f1 3f 84 09 03 14 f9 61 ce bf
       1.1157267985931276 -0.23736489750997347
000150 bb ba e4 45 49 aa f9 3f ed fa 24 57 ba 40 c0 bf
       1.6040737848485793 -0.126975338507655
000160 a4 a2 e2 25 37 a4 c0 3f e6 16 37 d3 b9 0d e2 3f
       0.13001145696514016 0.5641755223557225
000170 be 1f 87 ff 38 b5 dd 3f ad a0 60 e5 1c 8e be 3f
       0.46418595270051444 0.11935597038302843
000180 6f b4 cb 00 de e3 ee bf 77 35 de c6 e1 d4 90 3f
       -0.9653158202687687 0.01643708015722242
000190 a3 48 01 ad 3d fd c1 bf d3 4e 70 33 f0 01 c8 3f
       -0.1405407995940254 0.18755915176062973
0001a0 fe 28 3d 29 8d 73 e6 3f 4c 9c c9 7d 62 99 f0 3f
       0.7016053967902562 1.0374474443031145
0001b0 86 65 a5 d1 ba c3 f8 bf f4 f8 3d b7 28 2c e1 3f
       -1.547785586290361 0.5366405085512995
0001c0 25 26 24 e4 94 35 cf bf ea f4 0c ea f7 55 ce bf
       -0.24382268085200667 -0.23699854782345336
0001d0 08 9c dc 11 39 af e5 bf 82 ee c8 f7 18 ea d5 3f
       -0.6776395176756305 0.34241317937605953
0001e0 93 c5 7c 17 83 e1 e1 bf 7f 3b e3 e4 76 64 99 bf
       -0.5587783297288972 -0.02479730388659673
0001f0 65 d5 13 fb 00 2a be bf 79 dc 2a a0 be 6b d2 3f
       -0.11782842759915509 0.28782621041631945
000200 31 11 90 bf 4c 5f f9 bf 0d 75 36 c6 59 c4 e1 bf
       -1.585766552249947 -0.5552185889570481
000210 b2 8c e9 9f fd aa e5 3f 8f 5f 87 d4 2c e6 fa bf
       0.677122890785901 -1.6811950971514056
000220 f0 24 bf 66 78 b9 e1 3f 3a b5 a1 d8 d7 99 d3 3f
       0.5538904196520473 0.3062648406547229
000230 6e 02 bb a1 f0 d5 c7 3f 81 0f 14 98 98 69 d4 3f
       0.18621642968175273 0.3189450726642847
000240 1f 42 b1 7c 7e b9 f8 3f 37 8d 4c 2b ed 56 d5 3f
       1.5452866431043117 0.33343056896611095
000250 fb 83 e5 d0 cb fa f6 bf 9d 73 b2 1f 89 85 bd 3f
       -1.4362295303365034 0.11531884216169748
000260 bf 88 ab 3c a8 86 d5 3f 6b 9d 01 55 9b 0f d7 bf
       0.3363438217621812 -0.3603275613918046
000270 9d c6 77 c4 1a 84 e0 bf 68 62 e3 c6 6d e1 de bf
       -0.5161260449660464 -0.48250908301046147
000280 0d f9 1c 34 9a 05 f2 3f d0 5d ee 96 d2 9a cd bf
       1.1263677631064326 -0.23128731126483482
000290 f9 91 00 f8 d6 71 f9 bf 8b e8 d1 84 c6 89 00 c0
       -1.5902929008090025 -2.0672731758650733
0002a0 1f e8 23 3c 57 4f c4 3f 57 9a e4 04 c8 70 e6 3f
       0.1586712878850571 0.7012672515455262
0002b0 de 53 4a 19 37 74 fc 3f 16 b0 0c 4d 9b ab e0 bf
       1.7783728588012688 -0.5209480767130141
0002c0 d7 c1 68 a9 f5 25 a8 3f 2a 87 b2 74 d0 40 d7 3f
       0.04716460888846868 0.3633309497473528
0002d0 77 b5 8a d4 d6 77 f4 bf c3 4d 46 07 7e f2 fd 3f
       -1.2792576124587336 1.8717022213139536
0002e0 b7 e6 52 c1 24 14 c6 bf 86 83 38 29 ed 1a e8 bf
       -0.17248973312034874 -0.753286915311137
0002f0 7e 6e f1 06 91 21 e0 bf 1b e8 9f 08 f9 a2 e6 3f
       -0.5040974746329565 0.7073941391420279
000300 6e d1 12 ad bf 3e b5 bf 99 9b 14 58 bd b9 e1 bf
       -0.0829887197058434 -0.553923294098115
000310 5d c2 27 39 d8 5b e4 bf ed 37 63 0c 1c 8a c7 bf
       -0.6362115017237319 -0.1839022694097702
000320 8c ee 74 0c 89 c7 d8 bf 58 ed 67 39 9d 0c dd 3f
       -0.3871786710403533 0.4538949070553904
000330 67 96 12 30 2a 62 f9 bf e6 ce 1f ae 8f 0f d9 bf
       -1.5864660146557072 -0.39157478336640705
000340 6a e1 11 01 fb d2 e0 bf b1 87 50 b4 91 2f f8 bf
       -0.5257544537444521 -1.511613563874999
000350 f8 97 90 9e 65 16 e4 bf 35 85 55 63 31 ec fb 3f
       -0.6277340027779692 1.7451642875897282
000360 3e ae 8b 13 8b 5a d6 3f 13 ca a6 61 e7 cb cd 3f
       0.3492763224482792 0.23278515117779416
000370 d7 4c f8 95 36 6f c0 bf 39 1b db 58 fe 47 e6 3f
       -0.1283939583086979 0.6962882743326652
000380 fc 22 30 d2 19 a8 f9 bf 54 8f c2 b8 c2 56 fc bf
       -1.6035402498693534 -1.7711817948520165
000390 72 09 46 50 da fb e2 3f 10 2d 1b f2 92 7c d8 3f
       0.5932437484591857 0.3826033939664777
0003a0 c4 30 5b 89 2a f3 cd bf a6 86 80 c8 78 0c f4 bf
       -0.23398334223600703 -1.2530448753463275
0003b0 23 41 3d 7b 04 41 f2 bf 44 f6 6c c4 a3 a2 e0 3f
       -1.1408734144243418 0.5198534809530391
0003c0 36 a7 74 57 35 17 ce 3f 81 0c d4 3c c8 c6 cc 3f
       0.23508326311394406 0.224816350652052
0003d0 64 fe 0a 34 9b 47 ea 3f 9d 5b 44 5e 82 36 f2 bf
       0.821240998884559 -1.1383079225831587
0003e0 90 c3 c6 4d fe b4 c1 3f 0f cd 83 c9 6d 01 ea bf
       0.13833597943951448 -0.8126744209133977
0003f0 f3 39 62 33 37 fc ea bf a4 b7 ed b3 2f ac e5 bf
       -0.8432880405032946 -0.6772688402395386
000400 d5 13 e8 12 4d 91 ee bf e7 d4 50 a7 50 ec b8 3f
       -0.9552369469898802 0.09735588154656548
000410 95 94 eb d4 72 fc d4 3f 59 a0 e1 29 e2 93 f9 bf
       0.3279082373904399 -1.5986043582907057
000420 bc 80 7f 14 42 f0 fd bf 1b cd 4a 36 a8 66 e5 bf
       -1.8711567688660997 -0.6687813816446665
000430 5f f4 25 4a 8e c9 f4 bf 4e bf f9 37 81 13 f7 bf
       -1.2992079636017235 -1.4422619043870841
000440 27 9f 66 df ea 17 ec 3f 6a 06 7c f7 c4 ea d7 bf
       0.8779196131990589 -0.37370418709188036
000450 fc e9 4a e2 34 44 ed bf 70 57 35 a6 32 b0 db bf
       -0.9145759982851014 -0.4326292632225579
000460 59 36 64 78 db 56 e4 3f 13 d9 82 5b 5c 99 ad 3f
       0.6356026984592048 0.05781067483023796
000470 ff 2c d6 ab ee cf d0 bf c9 c5 a3 c2 18 1e e3 3f
       -0.26269118100090333 0.5974239160115583
000480 49 e2 c1 c1 1f 52 f3 bf 1f c9 ba 4a b1 28 e1 bf
       -1.2075498169562187 -0.5362173518717873
000490 5a 5f 7a 01 20 02 d6 bf 7b cb 09 ce b3 e1 cf 3f
       -0.34387970108354227 0.2490753894849965
0004a0 2b f8 42 45 34 2b dc 3f 82 33 4a 3a 44 bc d8 bf
       0.4401369739897542 -0.38649087612503064
0004b0 6b b3 f9 2f ec d3 e0 3f d2 26 30 8f 39 42 91 3f
       0.5258694588679708 0.016854190220363226
0004c0 b3 0e c4 19 98 1a d8 bf 62 51 b5 89 09 8c d3 bf
       -0.37662317768284054 -0.3054221958930353
0004d0 f8 8b bf 8e 57 f6 e2 bf fd 38 2c 0a 71 e4 06 40
       -0.5925710475970609 2.861543731188361
0004e0 b0 28 87 d2 b5 56 f0 bf fb 59 b3 8e f8 27 92 bf
       -1.0211694930790536 -0.017730601987603106
0004f0 e9 00 1c 49 e2 77 e9 3f 2c 1f d3 7a b3 3a ca bf
       0.7958842685621025 -0.2049164151887849
000500 95 8a fb d5 e5 be cb 3f e8 97 49 3d 9d 7b e5 3f
       0.21676323841446235 0.6713396260281543
000510 83 8d 84 b4 7e 35 e1 3f c2 d5 44 91 79 82 e4 3f
       0.5377801442850089 0.6409271085055297
000520 2e 29 2d 3b 8a e5 f3 bf 7f f7 e2 d9 67 44 fb bf
       -1.2435400306299687 -1.704200602645386
000530 06 9d 69 1b a3 ba c4 3f 72 b2 ed 4f 3d f9 f3 bf
       0.16194571341041114 -1.2483494875151817
000540 4b c8 67 e1 52 ec ed 3f 09 b5 bd e9 91 63 d8 3f
       0.9350981142472475 0.38107726885103027
000550 a8 0f 64 61 70 61 e3 bf d0 60 5b 9b a8 fd d7 3f
       -0.605644407478839 0.37485709353997
000560 a7 a0 05 e3 b3 90 ed 3f 09 da 8c 22 71 5b d0 3f
       0.923913901712713 0.2555811726955715
000570 74 a9 7a 0f 79 df 08 c0 12 e4 a6 e9 cd 14 f2 3f
       -3.109117623263211 1.130079186156085
000580 2d 32 68 99 4e 69 d2 3f b6 8c 38 30 8f 1e 70 bf
       0.2876774309268367 -0.003935393647711274
000590 cf 57 3b 7f 61 1b ea bf cd f3 d5 06 04 34 90 3f
       -0.8158423886295568 0.015823424260350372
0005a0 0f b3 23 d4 b7 af ea 3f bc 14 8e 88 3d 16 cd 3f
       0.8339499610279705 0.2272412220737915
0005b0 84 b8 9f 75 db 8e ee 3f f9 b9 7a fe bf 37 be 3f
       0.9549386308042505 0.11803817713619215
0005c0 e7 61 3f 70 98 08 ed 3f 03 6f c6 4e 0c 3f e3 bf
       0.9072992508254715 -0.6014462984635148
0005d0 ec 1c c5 8a 59 52 e1 3f b5 e4 c4 81 94 fe 01 c0
       0.5413024626112963 -2.249306691952905
0005e0 52 f7 79 82 c9 cd c2 3f 74 8f 3a 29 d5 53 e5 3f
       0.1469051253406471 0.6664834790467311
0005f0 5d 51 8e a2 ba a5 f2 3f d1 59 f1 f9 cb 90 b5 3f
       1.1654611921158768 0.08424067356222699
000600 84 45 ed b4 2a 1e f4 bf 14 f3 07 35 09 63 d2 bf
       -1.2573649470762982 -0.28729467562497857
000610 85 a9 95 dd 95 39 a7 3f 3a 1c 95 a6 32 f3 ac bf
       0.04536121683016162 -0.056542952379964054
000620 97 17 12 1a 43 ad c8 bf 62 6e 21 77 2b a8 aa 3f
       -0.1927875401781278 0.05206428364973871
000630 58 eb 9d de ed c3 f0 3f de 74 3e 93 bc d9 ef bf
       1.047834272000463 -0.9953291774615101
000640 f5 ce 4a 64 57 fa f0 3f 54 66 66 df cd ab f3 bf
       1.061118499533163 -1.2294443823397119
000650 5b 65 53 e9 b6 23 d0 3f 62 e6 49 3c 69 4b f2 bf
       0.25217983995169896 -1.1434109072710261
000660 26 38 aa 68 ec fe ce bf e8 d6 d2 ea c4 86 bb bf
       -0.24215464697448502 -0.10752516491887898
000670 61 30 f2 2b c6 40 ea 3f e7 db 33 44 42 b9 f8 3f
       0.8204069956132224 1.5452292122042708
000680 96 f2 a4 3e 65 39 e1 3f 1c c2 61 f9 04 2f cb 3f
       0.5382562850496295 0.21237241913651494
000690 73 a8 92 d2 b2 a6 d7 bf 44 f3 33 ac 9f 95 ca bf
       -0.36954947055585946 -0.20769115360590196
0006a0 e4 3e 57 df 59 65 e9 3f 59 92 40 d7 c0 99 f9 3f
       0.7936219560742441 1.6000374229708056
0006b0 eb 15 11 c6 5c 59 c6 bf cf a5 fd 83 6d 3d d8 bf
       -0.17460212393977712 -0.37874925508239426
0006c0 9f 6b 73 77 45 94 d7 3f 1f 49 cd 16 53 6a e0 3f
       0.36842476525424134 0.5129790730809737
0006d0 48 a6 10 c3 2f 93 d1 bf f2 c4 11 41 96 a1 d9 3f
       -0.2746085553104405 0.400487483543727
0006e0 f0 f4 8a 54 92 80 e9 3f 12 38 25 00 18 0d c4 bf
       0.7969447756983339 -0.15664958960627523
0006f0 57 31 f3 66 dd e9 e0 bf 01 25 84 44 94 d5 af 3f
       -0.5285479555837281 0.062176354755203896
000700 9e c3 df 87 1f 78 e1 bf 30 68 64 17 a7 7a e5 3f
       -0.5459134725370978 0.6712222535018153
000710 76 86 dd 87 41 1c dc bf 11 5f 5d 6e 7a 4c de 3f
       -0.4392246081170933 0.4734178617268166
000720 b4 1a 53 00 e0 f5 dd 3f fd 11 54 ed 16 ee d7 3f
       0.46813201934530047 0.37390683342553627
000730 b7 e3 d0 cb b5 66 d1 3f ea dd 50 21 31 0f ec bf
       0.27189392951873564 -0.8768544817639257
000740 60 44 32 90 55 0a e7 bf e2 ab 76 98 c7 17 f6 bf
       -0.72001150287009 -1.3808055835349866
000750 a1 16 14 e9 87 24 ec bf 01 db 97 29 90 4d e6 bf
       -0.8794593384088395 -0.6969681560866264
000760 a3 34 1e 93 c2 9f e7 3f 55 bc d7 3d ce 89 b2 bf
       0.7382519601248031 -0.07241524705726594
000770 d2 20 e6 bf 9f fd e6 3f bc 7c ed a1 93 52 8e bf
       0.7184599636102809 -0.01480594003595425
000780 22 0b 01 14 fc d4 ce 3f 8a 93 1f da 52 52 d2 bf
       0.24087477661859064 -0.2862746362791816
000790 e2 75 6f 7d cd e7 e5 bf ff da 97 78 53 f5 f7 bf
       -0.684546227446557 -1.4973940573378852
0007a0 84 d9 e6 92 aa 05 ec 3f a3 a5 10 ad 9e 88 dc 3f
       0.8756916875052387 0.44583861256486496
0007b0 70 01 32 fd fe f4 de 3f cd c2 33 67 a1 b9 ad 3f
       0.48370337225062254 0.05805687317650197
0007c0 7a 4c 94 71 42 3f 00 40 84 37 a7 ca 21 58 f4 bf
       2.0308884499914344 -1.2715166011944072
0007d0 f6 3d 8e 31 44 7e d4 3f ae c3 b5 cb 1f 2b db bf
       0.32020668830315857 -0.42450709241443974
0007e0 01 e1 81 31 53 36 fe bf b4 a9 eb 47 51 65 e3 bf
       -1.8882629331474734 -0.6061178593347933
0007f0 a9 8e 83 06 43 d9 c8 bf bf 8b a4 60 c6 5c f1 3f
       -0.1941303045087939 1.0851501250369748
