HW2/saved_params_35000.npy (npy, 836528 bytes, 1 tensors)

array f8 [104550]
-0.6716621597348246 0.10400662441327062 -0.11072183836498245 0.5843610834246271 -0.5474895630204367 -1.1281681719640968 -0.6711497180570416 -0.1713257636741909
0.7615678570860839 -1.0336759228968064 -0.20855391395407655 -0.2253778998960671 -0.9363226544268314 0.8236110237515875 0.2653884503009051 -1.1414038411465792
-0.25131229013895195 1.2081548706037102 0.5747268524575199 1.2258495324447913 -0.534525045413575 0.7682875134845311 0.8438898406376024 0.3151438670486079
-0.7192761054097607 -1.4750717581284098 -0.1852567821205882 -0.4696562151208114 -1.7380155133733868 0.7480376052222838 -0.20311743465300164 0.8905988481288353
-0.8183596005636723 0.06975043930710752 -0.9819565780096224 -1.284186254234423 -0.2699490248084471 -0.28861449865762984 0.684745024273235 -0.1967853107040554
0.9880557810454476 0.18161629804834376 1.1704900996524603 -0.2275415527175752 -0.23251790028995298 0.43088668655962437 0.26094583195041254 -0.08294104677002212
-0.7698914510630503 -0.008209143343136365 -0.20202774316440766 0.23283978869815627 0.7731962389208685 1.05285810768674 -1.4355565261141008 0.11187464773473331
0.15984748054262657 -0.20388078478036206 -0.2543881491426361 0.5305518281294898 -0.24080615026120752 0.165652992436884 0.14071069713201914 0.23776161557256803
-1.359251404797487 -0.630737011122602 0.6840051981280852 -1.7595863728945622 0.5556158926603385 -0.07439168533571164 0.147378255436113 0.07193848001448477
1.4351392046865203 0.9828853891240279 -1.311514826960936 0.1654119731679817 0.06812528887376808 -1.268479661796713 -0.4460046303195445 -0.6009324748923643
1.059471941980165 0.01800804367780971 -1.6292417236995136 -2.0543991114512234 0.11235767673578345 0.7196740879498982 1.7000155921622866 -0.7634168346525531
-0.09359460449328658 0.510826333681107 -0.9131021822273412 1.611162047459169 -0.09697881273324047 -0.6584651250874562 -0.4530025787311099 0.6339898116677706
0.3019985647190202 -0.6852735063987969 -0.549229295787905 -0.3041486335637823 -0.19791617168517223 0.28272287264773643 -1.7998802176411888 -0.4213748463783051
-0.006124519974413375 -1.7026813187971996 -1.1886172085580224 1.6332092923346244 0.04369473150139032 0.09167396288032838 -0.21947809315087766 -0.018929405691229927
-1.3150640483487501 -1.9503531400615504 0.39342646596386915 0.32542677649047663 -0.1440033675450162 -1.3974559164808351 -0.8614497136905911 0.24898882395409452
-0.06114000192578965 0.1352967926277206 0.6566910528626341 -0.9810034656349876 0.1254519525162111 -0.9080332546347288 -0.6553391453183105 -1.1642602200616055
-0.9414849223451764 -0.2139153002392349 0.30161305664450655 -1.4934279836564646 -1.9477530330070572 0.012617895819445947 -1.2822237122786009 -1.4332622710671183
0.9311947333278981 -0.09440600342716489 -1.0347137419152963 -0.4570893616165673 0.8586559146893701 0.3666356233931633 -0.3066033614915644 0.5300866684282382
-1.418221337949247 -0.49837408522411375 -0.015010666925585898 0.009830222649029153 0.3486474795036913 -0.4901295651792705 0.5556087853270262 0.028531029889415825
-0.22638366899796847 -0.32689186099662726 -0.30507828508582874 3.126198257203077 -0.9844591361067632 0.19042632051280806 0.7882351970373086 -0.27463394177865325
0.21250786682785214 0.8487188042077128 0.8118569722013352 0.43041209100285266 -1.3664089948560623 -1.7083997471929513 0.09267602826203093 -1.1443497559009528
0.9812049444381001 0.1919325041553496 -0.6407129546622053 0.37529754459597986 0.8560063224093802 0.4767607219393525 -3.0071646818448565 1.0304937754083578
0.3016920356040875 0.1170936520763707 -0.6524651094453163 0.03974846446390027 0.7667836207392006 0.11445992665807335 0.915278391375838 -0.32308340062069646
0.824329549973664 -0.8234389164811694 0.8898042355492275 -2.2821488599485993 0.2971478197732263 0.4788927132927205 1.3515543619459078 0.338890086468573
-1.1100589877693232 -0.5838225278755432 0.002208593367167238 -0.08605662688052036 -0.33253591817606487 0.08732341394700521 1.0536218175603622 -0.8571830208876051
0.8354965560871531 -1.1534302354671515 0.19830047021792435 -1.2087406568668817 -0.14086949847345231 -0.2908342893614697 1.2443227096698486 1.490086610962614
0.8219189932777499 0.1236856129611249 -0.5775326296144193 -0.6638808743701275 0.8088908098054416 1.4965436194965835 0.2622632092323985 -0.40858013737019194
0.4184640674442997 0.27654876158316255 -0.21883631844291893 0.17086267688279808 0.6222792883770304 -0.6952137252559644 -0.9364084402608089 0.4221156581895087
-0.6312720010506734 0.897947233830373 -0.3311529173997608 0.7614956634893643 0.3583068464464183 0.6400146230781447 0.3147166151929894 -0.6154918922343418
-0.7060501118735129 -0.7833248650159812 -0.7467572684370498 -0.7835575938736671 1.1001569068801846 -0.24778737342911222 0.8277842167337318 0.1077134716406376
0.5885251519144327 -0.07958252777823653 -0.8973297969502633 -1.3916032181972529 0.9227629711461054 0.347968389532731 0.5383020989954879 0.19765733038507638
1.9934970993875032 -1.2998837720410896 0.9514990015042214 -0.24268188239045058 -1.9211268593945576 -0.6274099241735172 -0.026866752995125778 1.462981521135856
00000000: 95b2 40a4 417e e5bf 4b1f 6c9a 2da0 ba3f
00000010: 7408 bb32 4458 bcbf 14a5 cb03 16b3 e23f
00000020: 155f 02d5 0885 e1bf 1895 af11 fa0c f2bf
00000030: a4c9 38f9 0e7a e5bf 1eb0 f8ab 00ee c5bf
00000040: 35d3 fb8d c35e e83f 0712 b8c3 ef89 f0bf
00000050: ed59 f107 e5b1 cabf 06bb a5da 2ed9 ccbf
00000060: 7f8c 68ed 5af6 edbf b46b 7481 055b ea3f
00000070: 16d3 b1d6 1ffc d03f ab0d 94ac 3043 f2bf
00000080: c8b2 ce24 8015 d0bf cfef 9b33 9a54 f33f
00000090: a104 6e91 2964 e23f 23ad 3a66 149d f33f
000000a0: 0c37 9e44 d41a e1bf 46eb 0ab2 cf95 e83f
000000b0: 8be2 5e44 2501 eb3f 3f8f a02e 512b d43f
000000c0: f8ee b052 4f04 e7bf c9a2 06d8 e499 f7bf
000000d0: d1f9 4886 7eb6 c7bf 4fa6 13f1 d80e debf
000000e0: ce11 de5a e9ce fbbf a773 538f ecef e73f
000000f0: ea80 8a89 c0ff c9bf 1f32 d227 c97f ec3f
00000100: 2d3c 1979 0030 eabf 1da6 b42f 2adb b13f
00000110: be96 9433 306c efbf ac8d bee2 068c f4bf
00000120: 7deb 4846 d846 d1bf 81b3 38f2 a878 d2bf
00000130: cd45 ab65 6ee9 e53f 994f e7d4 4230 c9bf
00000140: 8cd8 4628 279e ef3f 8fe4 44ee 333f c73f
00000150: 1bc9 a4d3 53ba f23f fe96 b3e3 1420 cdbf
00000160: 936e bd84 25c3 cdbf 808b c3c0 a593 db3f
00000170: 484a 9025 56b3 d03f 688d 5fdb 9f3b b5bf
00000180: 2825 7965 f3a2 e8bf f6dd 7e91 f4cf 80bf
00000190: 054e e38a 0bdc c9bf cd43 d5b6 b1cd cd3f
000001a0: 49c5 f109 06be e83f e87c 3dbe 81d8 f03f
000001b0: cc82 b31e 0af8 f6bf e7ae 4521 d1a3 bc3f
000001c0: 6da8 a3da e175 c43f 570d 75fb c318 cabf
000001d0: 98af 433b e547 d0bf 03c6 d4d3 47fa e03f
000001e0: 0f16 0666 bcd2 cebf 331f 8004 1e34 c53f
000001f0: a18f 30e1 ce02 c23f 446c 90fd f86e ce3f
00000200: 325b aa66 7ebf f5bf 66bf 6462 ff2e e4bf
00000210: ce21 88de 5ee3 e53f 491c 610a 4427 fcbf
00000220: e4a5 03fb 9ac7 e13f e277 9c5f 550b b3bf
00000230: 82ac 9e69 4add c23f 1875 fc6a 8f6a b23f
00000240: 7b60 d586 54f6 f63f 3a20 400f cc73 ef3f
00000250: d842 a0f8 f6fb f4bf a7c8 8f33 382c c53f
00000260: 954e beaf a870 b13f a9ed 7054 b14b f4bf
00000270: a291 4501 578b dcbf a48b d8bd d63a e3bf
00000280: c759 ddd9 98f3 f03f dbff a45a b370 923f
00000290: da16 09c5 5f11 fabf 6cea 24cd 686f 00c0
000002a0: 10e4 0803 79c3 bc3f 06c0 f0f3 9107 e73f
000002b0: fb6e b08c 4333 fb3f c38d 4124 e96d e8bf
000002c0: e676 61e5 d0f5 b7bf ec11 a377 b058 e03f
000002d0: 4153 5211 2238 edbf e74b e6da 51c7 f93f
000002e0: ee1b 187d 9ad3 b8bf 5ed4 3974 2512 e5bf
000002f0: 91d7 2987 fefd dcbf 5d87 6300 a549 e43f
00000300: 700e bac9 f153 d33f de89 59b4 c2ed e5bf
00000310: d240 ed50 4993 e1bf dee3 91d4 2b77 d3bf
00000320: 0661 5e2e 5155 c9bf d89a f6ac 2118 d23f
00000330: c1c7 f732 4fcc fcbf 6b51 2334 cef7 dabf
00000340: 3c9f e64f 0616 79bf ede7 3bc4 2e3e fbbf
00000350: 2583 637a 9304 f3bf b69b 2111 a021 fa3f
00000360: 6aa8 9ce5 275f a63f f939 77e0 f177 b73f
00000370: 3dbf 22b0 db17 ccbf 0396 81e9 3a62 93bf
00000380: 17da 7c99 800a f5bf bb71 837e a534 ffbf
00000390: f185 2c33 e62d d93f 313c 91d4 cad3 d43f
000003a0: bc52 0fcd b36e c2bf b830 2ebc fa5b f6bf
000003b0: 8d63 6efd fe90 ebbf 31e6 f9a3 ddde cf3f
000003c0: 364e 7f09 be4d afbf 0e7d cbc1 6751 c13f
000003d0: c3dd 73f4 9c03 e53f 1f47 4561 6164 efbf
000003e0: 6c63 a340 cf0e c03f 6fc5 8ac1 9b0e edbf
000003f0: 95c8 9dcc 89f8 e4bf 7a2c 1353 cfa0 f2bf
00000400: cac9 e4fc a420 eebf d11d 5299 9361 cbbf
00000410: 906c 95d9 a04d d33f 95c5 cbbd 14e5 f7bf
00000420: b033 9715 ff29 ffbf 4160 1c4f 69d7 893f
00000430: e146 e602 fd83 f4bf f12e 4d6b a4ee f6bf
00000440: 7539 bbe5 58cc ed3f 5907 44e9 fd2a b8bf
00000450: bcf7 23ff 2f8e f0bf fa87 dfbc f340 ddbf
00000460: 2f73 03f8 1b7a eb3f df6b 0143 f576 d73f
00000470: bccb 9cb4 639f d3bf 723c 1e51 78f6 e03f
00000480: bbb3 8fdb 08b1 f6bf fa88 4d6b 5ce5 dfbf
00000490: a4d5 4a9c e9bd 8ebf 5ae0 5126 de21 843f
000004a0: 9b46 9384 3d50 d63f c7d9 4f65 485e dfbf
000004b0: 1232 4b13 8cc7 e13f 6659 2f01 3d37 9d3f
000004c0: 04ee 58db 23fa ccbf 2ac8 13d7 cbeb d4bf
000004d0: 2175 4a12 6786 d3bf ccfe 5b3b 7402 0940
000004e0: 7676 3a72 b080 efbf 4837 73c1 e35f c83f
000004f0: 799a 1a05 3939 e93f 85e5 933d 9a93 d1bf
00000500: 6f8c 1531 7533 cb3f b950 7256 b428 eb3f
00000510: 514c 1479 bbfa e93f 2d41 aa27 df8b db3f
00000520: 50df 9dad cfdc f5bf a903 2bf9 9a55 fbbf
00000530: 4133 82be 9db9 b73f 997b 8cb0 414f f2bf
00000540: d81f 61e9 0766 ef3f 757c 318a 3e91 c83f
00000550: fbb9 4c74 b880 e4bf f4c3 13fe df04 d83f
00000560: 535c fd5e 6764 eb3f b2cc 2f67 3f83 de3f
00000570: e2ad 515b ac0e 08c0 78c4 810a e77c f03f
00000580: bc86 981c ec4e d33f 19ba 3c7e d9f9 bd3f
00000590: 8128 5b82 fee0 e4bf 5599 e025 e959 a43f
000005a0: dfdd c5cd 7d89 e83f 97f0 b2e9 3e4d bd3f
000005b0: 163b b6e8 f549 ed3f 85f7 e2ff 65ad d4bf
000005c0: d46c 485d e860 ea3f 1f4a 1192 9c59 eabf
000005d0: bcd6 70bb 4679 ec3f d1a9 f042 d741 02c0
000005e0: c53c 004a 7804 d33f d7a2 789f 2da6 de3f
000005f0: 5f2e 7577 f79f f53f 728d 940b 60b0 d53f
00000600: 0a9a 9136 cdc2 f1bf 9b97 fc94 acae e2bf
00000610: a556 0789 c117 623f 1550 0e9e ce07 b6bf
00000620: 1ef0 53bb 4448 d5bf 44d4 13c7 d35a b63f
00000630: a061 0c8d a2db f03f 8dc2 2c16 0b6e ebbf
00000640: 1714 0a46 63bc ea3f afc8 3843 7374 f2bf
00000650: 3207 2fe9 e861 c93f c96b 6971 0057 f3bf
00000660: 6444 7900 0308 c2bf f839 576c 079d d2bf
00000670: d03b fbed bee8 f33f a2ab e40e 65d7 f73f
00000680: 8fda 820f 294d ea3f d85b a73e dca9 bf3f
00000690: 5323 92b5 257b e2bf b381 7b1a 833e e5bf
000006a0: 4bc7 c4fa 6ee2 e93f 9b67 ecb8 d7f1 f73f
000006b0: d137 a6a0 ebc8 d03f da35 f34d 2d26 dabf
000006c0: a95c 0e83 1dc8 da3f 5cef af93 f9b2 d13f
000006d0: 27d7 7117 d402 ccbf f7c8 a804 d4de c53f
000006e0: 07d7 1141 b6e9 e33f df8c b6da 303f e6bf
000006f0: 1dcb 53d5 0ef7 edbf cc6b c364 f103 db3f
00000700: 7094 ec56 6133 e4bf 47b9 5ad6 fbbb ec3f
00000710: de3e 8d01 9c31 d5bf cb71 5727 2c5e e83f
00000720: 8ce5 dad6 7fee d63f 02a3 62f2 ff7a e43f
00000730: cbbf 7028 5124 d43f 5e30 830d 1cb2 e3bf
00000740: 23af 7a67 f697 e6bf 6264 ac4e ff10 e9bf
00000750: f698 bf7f 6fe5 e7bf 0309 0760 e712 e9bf
00000760: 754d f820 3e9a f13f feb0 9e24 7fb7 cfbf
00000770: f985 6053 357d ea3f 6000 092e 1c93 bb3f
00000780: c711 0bb3 32d5 e23f 43fa 2342 855f b4bf
00000790: 2116 74fa ecb6 ecbf 1ba6 72bc 0144 f6bf
000007a0: b808 e135 4687 ed3f 7c6e 4535 1d45 d63f
000007b0: 86b8 d152 c539 e13f e8c6 e8dc d54c c93f
000007c0: 9ca4 e836 5de5 ff3f 1648 18ed 52cc f4bf
000007d0: a564 b408 ae72 ee3f 1e6f 192e 3310 cfbf
000007e0: ad11 8984 efbc febf e65a 30fa bd13 e4bf
000007f0: e7e7 da45 f582 9bbf b2e4 be4f 5f68 f73f
