HW2/saved_params_30000.npy (npy, 836528 bytes, 1 tensors)

array f8 [104550]
00000000: 147f d44a 5028 e6bf 36ea a59a 43e4 bc3f
00000010: f2bc 9e8d e9fe b2bf 7a7c 4d74 ed2b e53f
00000020: ec2a 502c 32c5 e2bf 61c1 64a8 5324 f2bf
00000030: 9a10 f2e4 c15f e6bf 0ed9 1b88 2ddb c0bf
00000040: 1a3a 8b26 57bd e73f 277f bbaf 0b0b f0bf
00000050: 6b78 89cb c1c5 cfbf 669b 7508 d5f8 cdbf
00000060: a019 1b87 70ac edbf 77e6 0649 941b ea3f
00000070: 907c cbd3 4033 d13f 23c8 7668 1b29 f2bf
00000080: 7466 b735 bd79 d2bf 3eca e820 95f9 f23f
00000090: bc61 04e1 3fee e13f 4d1e f773 3c61 f43f
000000a0: 9f14 0a1d 2a63 e1bf 0670 c927 4c91 e83f
000000b0: 883c c795 99c7 ea3f eb20 57ba f2cd d13f
000000c0: c52e 82bb d7c1 e6bf ed39 e200 9fe7 f7bf
000000d0: 5854 fcf3 2d0a c5bf 47a2 2e90 aff4 ddbf
000000e0: 5dd2 56eb f9ea fbbf 0a52 24a2 9a2e e73f
000000f0: d596 e610 e906 cbbf 35a6 e59a 1cba eb3f
00000100: 03df 8d94 cdeb e9bf ac79 ac1d 4d8d b83f
00000110: 8c85 9b14 162e f0bf 0396 1d3f 7359 f4bf
00000120: ecb0 df5f d837 d0bf ead6 8db1 ac0d d0bf
00000130: 5712 ef21 0581 e63f d669 6347 5e21 cfbf
00000140: 6755 fd80 a3ca ef3f 677d 0afb d5e8 c53f
00000150: 9110 9dee eb0e f43f 9b25 6be5 0ae6 c9bf
00000160: 280b e21f 6601 cbbf 238b 9d81 a136 dd3f
00000170: fba3 eb59 315c cf3f 3481 fd7d 6c6a a6bf
00000180: c24d 208e 55ce e8bf 4b28 0f34 0d43 7dbf
00000190: 8f60 7cb8 bcb4 c6bf 2c77 67ae 69ea ce3f
000001a0: 48f5 dcbd b0c1 e83f 6167 b95f ca4c f13f
000001b0: b18e 433d 52d0 f7bf 2d87 5bb6 fdf9 c63f
000001c0: 7b9b 0e3b 72fb ae3f 8626 08f7 e556 ccbf
000001d0: d1f7 e729 6bbd d7bf d158 626d 2758 e03f
000001e0: 110b 9f77 59ad d3bf 6bb9 da8f 63f6 bd3f
000001f0: 9684 d1be 11fe b73f b4a9 17f5 a55d cd3f
00000200: 9347 1718 f9d8 f5bf bc72 2eed b455 e4bf
00000210: b8e2 6f00 d624 e73f 5abf fba0 6673 fcbf
00000220: 51c4 94c8 7eab e03f ea4a 7109 4fa0 b2bf
00000230: ab5c 049c 19bb bf3f c452 b112 bec0 c53f
00000240: ad21 e9d2 6292 f73f 038e 6aa4 b503 eb3f
00000250: 2057 3bf8 762f f5bf 0e4c 2e74 2a35 c43f
00000260: 350f 13ee 3ec3 b93f cdf4 2c7c 28fd f1bf
00000270: ba23 84b9 e225 dcbf 4558 fbc6 03ec e3bf
00000280: 1172 a2b3 3af0 f03f 6c3b 6503 5785 96bf
00000290: e8f2 7b75 04f8 f9bf f568 0351 da8a 00c0
000002a0: 8d9d 75a0 e64c c13f baa9 e0a1 238d e63f
000002b0: b2c7 cea5 a3f1 fa3f df10 591b 58e7 e7bf
000002c0: 0973 6fa4 c5c6 b7bf a7a8 3e68 8d18 de3f
000002d0: ca6d 8cbd d8f3 eebf b734 8d9d cab8 fa3f
000002e0: 2b6e 17ef 6794 bebf f801 6657 7e65 e5bf
000002f0: 70b8 ad02 2591 dcbf 5ede 85a9 68f2 e33f
00000300: 4e38 165d 578a c83f 4675 e520 3337 e5bf
00000310: 2f81 f8f4 6402 e2bf e37b afd4 3e43 d3bf
00000320: f93f 3947 fb72 d3bf 6ebe 6076 b699 d23f
00000330: ef75 8839 e975 fcbf 4b13 d6ef a0c4 d9bf
00000340: c06a 10c4 243f 973f 256a 6e04 b43a fbbf
00000350: 98b2 9dc9 691f f2bf 1494 39ae 82e9 f93f
00000360: 09b8 670c 832a a73f 23cb 1d9a 783e b53f
00000370: e84a d740 e03b cbbf 8b13 736e 745b be3f
00000380: 78b1 39fa ef44 f5bf ade3 769d bf35 ffbf
00000390: bd31 ccb0 9da8 dc3f 89c4 ad58 8877 d53f
000003a0: 99f2 d810 5fdc c4bf 89ed 15c0 c14c f6bf
000003b0: e912 0244 fdc9 ebbf 58d4 682c cfb8 d23f
000003c0: 9e97 bb57 1a75 a8bf 49f1 2360 8034 bf3f
000003d0: 8944 dece 81cd e53f 38f0 6d3d e51e eebf
000003e0: f03f 13a8 3c83 be3f 4d41 13d9 173c edbf
000003f0: c5f3 6572 258b e3bf c54c 6991 935e f2bf
00000400: a0a2 8c92 6b99 eebf cbb0 c434 714c c8bf
00000410: edf3 219a 6139 d43f 60c3 a909 8eda f7bf
00000420: 8926 be24 e30e ffbf 8986 3144 a0bd 913f
00000430: 7d41 30f0 69f1 f4bf dafa b6c1 dd92 f7bf
00000440: 158c c77c 55a3 ee3f e576 13b5 1a35 c2bf
00000450: b1e5 332b a435 f0bf 357b 45eb 59ad dcbf
00000460: 3820 ece7 5e55 ea3f d0e4 a90a 6a59 d73f
00000470: 4598 8f1f 0df7 d2bf eef4 8561 9cb2 e13f
00000480: a87b aa3b c017 f6bf c44d d011 8bcf e0bf
00000490: 935d 6d01 8d5c 7dbf c117 5582 d792 ab3f
000004a0: 1aaa 192d e61f d83f adc6 4d40 1fab debf
000004b0: 82bf 7ac9 906d e13f f033 0e42 82c9 a03f
000004c0: 1b23 21cb 1925 ccbf f2e4 1b75 6310 d4bf
000004d0: 960d fef7 ba0e d2bf 29f7 57fd cbf7 0840
000004e0: 3367 db0d 7bf8 eebf b4cb 3bbe 6e22 c33f
000004f0: c807 47f8 3476 e93f 53b5 d074 9536 d3bf
00000500: 7c19 3ab3 e499 cf3f d1d1 1cf9 9d71 ea3f
00000510: d1db a257 e6c4 e93f 640e d7f8 ac64 d93f
00000520: b684 0781 5d82 f5bf 3608 d8e8 3b35 fbbf
00000530: 83a9 952a 10fd c53f c703 ab54 9ff6 f2bf
00000540: 2dce 5822 e684 ec3f a45a 2971 9f3c cc3f
00000550: b21f 9589 b03a e4bf 776f 9122 81e4 d83f
00000560: 8c8c 4f24 ae61 eb3f f2d6 232e b3fd da3f
00000570: 31b8 34d1 4f13 08c0 483c 38cb 4ef7 f03f
00000580: bb2f 4ba0 b674 d13f 959b 24a5 2b3b b03f
00000590: daa7 0ce8 c822 e6bf f80c ad3e 6e39 a53f
000005a0: ea6f fd56 6bac e83f 74d5 f98e 3748 ba3f
000005b0: 54dc f196 532b ed3f e0dc 4915 50fb d0bf
000005c0: 180d b86b b23e e93f dc1f a46c 4aa4 eabf
000005d0: 888e 0008 8ad7 eb3f 757c 9f3e 6224 02c0
000005e0: 7972 02c2 f8d3 d23f ec57 ff27 8286 de3f
000005f0: 94a0 a7f7 8885 f53f ef0e 9546 8ed7 d53f
00000600: 0938 7dd1 8357 f2bf 0802 70cf 5e28 e1bf
00000610: 17ae cb6a 4987 853f ff6d a3d8 9a61 b7bf
00000620: d4ec 62ae a698 d4bf 09eb b47b 93b5 b93f
00000630: ed20 1ae3 795a f13f 30e1 1030 9c2a ecbf
00000640: 79ec f34b a6eb eb3f fc0a c148 c88b f2bf
00000650: 37c5 b4b5 8690 cf3f 43dd 3d0d 93a9 f2bf
00000660: f03a 5fe7 05ff bcbf 0802 3cc9 199b d1bf
00000670: 13b3 956c e218 f33f d8dc d858 25a2 f73f
00000680: a810 ddc6 2696 e73f 6d6b b6b8 d993 b63f
00000690: c8cb 200f a565 e3bf 51ac 45c6 efb0 e4bf
000006a0: 9249 dec4 98c7 e93f 3f63 9f91 9061 f83f
000006b0: 877f 2fed ed4f cf3f 14f3 b52d 9351 d9bf
000006c0: c638 c177 26a3 d83f ae6a c303 b662 d33f
000006d0: 63a1 c216 8f95 cfbf 1939 8eef a247 c53f
000006e0: cc27 f254 df4b e33f b0a5 e1ef dee6 e4bf
000006f0: 71a6 2ce5 33f9 ebbf d012 8948 72f9 d73f
00000700: 31a2 f882 c2af e3bf e981 16bf 525e eb3f
00000710: 39d8 5b12 1f10 dbbf ae17 2822 1e51 e63f
00000720: b944 588e 4bb2 d83f 9c70 a4d4 aad8 e33f
00000730: 3675 82a0 9a96 d43f d4d1 81ba de29 e5bf
00000740: 0b9b b936 815b e6bf ec0e 2c63 5d39 eabf
00000750: b57f da44 469e e8bf 0efc 9d47 21ff e9bf
00000760: d8c1 414c 1dc6 f13f ead2 2fc9 dfed cebf
00000770: 31df 68a2 deb6 e93f 9bba c908 0604 b93f
00000780: 6732 8031 9a3d e03f 12b5 45b3 fb7d b9bf
00000790: f348 2e78 0175 ebbf 279c 60df 248c f6bf
000007a0: b43a aa47 0a39 ee3f 681e c6f6 d17e d63f
000007b0: d87a fb15 6bc6 e23f 50e4 6e2f bd60 c63f
000007c0: 58a1 93f6 7b26 0040 f9c8 568a 92a9 f4bf
000007d0: 9680 44ee 4775 ed3f 69eb 7a11 4950 d0bf
000007e0: 10fe 7059 b516 ffbf edfc 3e52 9fdf e3bf
000007f0: 819f 711e 9cea a3bf b3df b1e0 4017 f73f
-0.6924210988545121 0.11285803342426778 -0.07420215327759985 0.661612250474618 -0.5865717759600932 -1.1338688447832157 -0.6991891357033808 -0.13168877740799484
0.7418628456887888 -1.0026966919467186 -0.2482225650628068 -0.23415625489289055 -0.9272997511659931 0.8158666063602159 0.2687532490071556 -1.1350359039902365
-0.2886803650450027 1.1859332356949746 0.560333194243007 1.2737392930884142 -0.5433550421881995 0.7677365090453356 0.8368652272564683 0.2781950778703634
-0.7111624395633603 -1.4940481218833341 -0.16437315381395723 -0.46805943565644664 -1.7448672478614278 0.7244389693101436 -0.21114838910323522 0.8664687180837009
-0.8100345517586621 0.09590608572441423 -1.011251526353905 -1.2718384232952082 -0.253408521296264 -0.2508346303869603 0.7032495177050561 -0.24320581899412613
0.9934861678436108 0.17116808660373836 1.2536429711190389 -0.20233284189297937 -0.21098019177232996 0.4564594045424874 0.24500100031517022 -0.04378069913832619
-0.7751872802640991 -0.007144023490534289 -0.1773906613168532 0.2415287114699195 0.7736438472999589 1.0812476863124731 -1.488359679519743 0.17950412182022416
0.06051213236724259 -0.22140192567922073 -0.3709361943473342 0.5107609878930593 -0.3074554126907723 0.11704084646291839 0.09372054012921391 0.22942041842845884
-1.365471929650515 -0.6354622490358319 0.7232465752159305 -1.778174046365129 0.5209344785308848 -0.0727586172154521 0.1239486699963545 0.16994453346946703
1.473238777036481 0.844202824712227 -1.3240880676798454 0.15787249253170937 0.10063546478619119 -1.1243061876878528 -0.43981235615552416 -0.6225603948939883
1.0586497323012092 -0.02199302633499249 -1.6230511273599237 -2.067799218098225 0.13515932879384387 0.7047289048835446 1.6839939572205194 -0.7469902547968806
-0.09287677063498391 0.47024855785515246 -0.9672664358253595 1.6701151041373075 -0.11945199572749547 -0.6686393458367652 -0.44635892163831326 0.6233409224505058
0.19172184033635847 -0.6629882471567405 -0.5627922806343458 -0.30097933549944694 -0.3038929172080312 0.2906318813356624 -1.7787868735680339 -0.4026262609625532
0.022701811281971684 -1.7018318341348586 -1.1326692462563752 1.6195093923245212 0.04524621511869504 0.0829844833622642 -0.21276477018417173 0.11858298965951357
-1.3293304228237428 -1.9506221915200783 0.4477915026225466 0.33542069110905764 -0.1629751999152134 -1.3937394622178962 -0.8684068992884849 0.2925298627554347
-0.04776842423397841 0.12189485881021257 0.6813363113780194 -0.9412714195054894 0.11919001677892971 -0.9135855903387352 -0.6107356294957006 -1.14808995057392
-0.9562280523578757 -0.1898328311593843 0.31600227405561904 -1.4908581140009218 -1.9411345896973293 0.017324928438375884 -1.3089389212001088 -1.4733560149176612
0.9574382245158427 -0.14224561540225192 -1.0130960166555776 -0.4480805203983665 0.8229212312444423 0.36483241120693055 -0.296328812428673 0.5530530838729228
-1.3807985621167322 -0.5253348682330672 -0.007168341448810084 0.05385468927356341 0.376946968119826 -0.47919446258229464 0.544624703898066 0.03278739029256161
-0.21988222521238118 -0.3135002750055512 -0.2821490690041285 3.120994548079484 -0.9678321142812137 0.14948829926251295 0.7956795548600377 -0.30020653159848115
0.24688395263019547 0.8263692727546702 0.8052856170314674 0.3967697553709739 -1.3443274536332814 -1.7004965873206976 0.17178537444426575 -1.1852105433792859
0.8912230177724659 0.22060006165948665 -0.6321642577322477 0.3889468038157626 0.855673857612048 0.4217346144281314 -3.0094295829976763 1.0603778780239441
0.2727486195915351 0.06340287000476359 -0.6917461902823974 0.04145378604018818 0.7710472773574086 0.10266444435713656 0.9115388820781711 -0.26533891753156347
0.7889034370313395 -0.8325550195595457 0.8700609356205442 -2.267765511743671 0.2941877264618494 0.47695974260329765 1.3451013254180326 0.3412814797668337
-1.1463659461182962 -0.536178021575382 0.01051194531597503 -0.09133308209441536 -0.3218170836441463 0.10042688150580771 1.0845888968634043 -0.8802014292514624
0.8725158198789266 -1.1591265527683268 0.2465980899083122 -1.1664000050785297 -0.11326634310465145 -0.27509159709737263 1.1935753099052746 1.4770863981810205
0.7370790370992113 0.08819351920685188 -0.6061578078719032 -0.6465987083914887 0.8056148381313497 1.5238195122130518 0.24462675172162227 -0.3956039377588223
0.38495790190507895 0.3028998409987861 -0.24675167666760975 0.1662486715035321 0.6030117663478847 -0.6531824765381113 -0.8741702533781802 0.3746000011781634
-0.615205055049108 0.8552640659509595 -0.42285897057388727 0.6974020640488925 0.38588227177485696 0.6201986458941238 0.3216921393848965 -0.6613610880581811
-0.698670012364205 -0.8195025383906489 -0.7693206162257328 -0.8123937987110155 1.1108677843841317 -0.2416343433721047 0.8035729572356783 0.09771764483023519
0.5075198141872307 -0.09957860113873476 -0.8580329272538435 -1.4092148519209873 0.9444629096704689 0.3514904889966375 0.5867209843962327 0.1748272401435167
2.0187911285212685 -1.2913995174281452 0.9205665258086977 -0.254900233335937 -1.9430440419963624 -0.6210476499908545 -0.03889930602673442 1.4431771065846817
