HW2/saved_params_20000.npy (npy, 836528 bytes, 1 tensors)

array f8 [104550]
0	0xbfec7f4dc52e3bfa	-0.8905400134261747
1	0x3fb3ef04d40a464d	0.07786588837395776
2	0xbf5b8ddbd726baa4	-0.0016817709807629777
3	0x3fe9013d45a7aa62	0.7814012871215932
4	0xbfe0c32c4879b557	-0.5238248267684565
5	0xbff24938d1376479	-1.1428764507784577
6	0xbfe8013c5a512527	-0.7501508487704641
7	0xbfc0c6316bce10f7	-0.1310483719245281
8	0x3fe8eca04a739ec2	0.7788850263723008
9	0xbff026ba45909b04	-1.0094549863221696
10	0xbfce095fc1b89079	-0.23466107329398136
11	0xbfd45d31204c5ccd	-0.31818798212175353
12	0xbfec3c39a7b8806e	-0.8823517108721839
13	0x3fe81d6c338c0a9b	0.753591633489424
14	0x3fd08a511cdb2e21	0.2584421903418122
15	0xbff23b031dab1c22	-1.1394072684213445
16	0xbfca490d847bbdc6	-0.2053543946162632
17	0x3ff2ddf7d65fa975	1.1791914342853407
18	0x3fde4a680e8fe124	0.473291410656673
19	0x3ff60663fdb357c6	1.376560202615552
20	0xbfe1e02cba034fa6	-0.5586150773110503
21	0x3fe608cb5ec66719	0.6885735369753291
22	0x3fe9e8956f0d19f7	0.8096415680855092
23	0x3fd45a8abd59ebb2	0.31802624217351216
24	0xbfe76ae213573bdb	-0.7317972543477212
25	0xbff801b87b214001	-1.5004200753937769
26	0xbfb4ab2788a57502	-0.0807366093262836
27	0xbfdbb0b56be89e2a	-0.4326604417605916
28	0xbffba03ae450f923	-1.7266186636548546
29	0x3fe75e6c3d3b78a0	0.7302762218421499
30	0xbfcab99530ee9395	-0.20878853692297797
31	0x3fe9d4598d3e0bd5	0.8071716078414918
32	0xbfe937162e90660d	-0.7879744443372957
33	0x3fc2733a522c6d53	0.14414147388820683
34	0xbff0450049877a84	-1.0168459770426646
35	0xbff3653168fd2a3d	-1.2122053242807305
36	0xbfc648628f16fbf1	-0.17408401476674798
37	0xbfca030fb8104bc5	-0.20321842658503733
38	0x3fe7c63bac0c40d1	0.7429483757314533
39	0xbfccecd61d951f61	-0.22597767300089358
40	0x3ff0768c01a31d34	1.0289421142532094
41	0x3fb0adfe16ad2f68	0.06515491536737061
42	0x3ff5cc3a7cc18b17	1.3623604653627746
43	0xbfc766ba9baf952d	-0.18282253839348908
44	0xbfc34427b157af12	-0.15051742705633636
45	0x3fe01c82b4c59648	0.5034802942943282
46	0x3fcdab98709b9f7a	0.2317991781085274
47	0x3f95df6e0499bb0a	0.02136012938575064
48	0xbfea6dcb80b968a8	-0.825902701773221
49	0x3f67c722a12c1838	0.0029025722845999156
50	0xbfc250c31bde0ecc	-0.14308966503823795
51	0x3fd00ab94bd8d44f	0.2506545296376474
52	0x3fe7926d69bb084d	0.7366244378138248
53	0x3ff09af1cb46406e	1.037828249016481
54	0xbff7f4a6bfd6f3ba	-1.4972293370949346
55	0x3fcbce6188926618	0.21723574799106937
56	0x3fa1dd1935ba62da	0.0348899725042366
57	0xbfceafaae3a9ec62	-0.23973594776529966
58	0xbfdd585a51bb62e9	-0.4585176275409553
59	0x3fdf240e6a9a5a5e	0.48657570276683326
60	0xbfd8b34d1e45c813	-0.3859436793928818
61	0x3fc04a7fd0f8d8ae	0.12727353767121968
62	0x3faf47759d8e9e17	0.061092067225498585
63	0x3fd1c46bb4c630e5	0.27761356977204193
64	0xbff6aff8d3f8bfe0	-1.4179619102615035
65	0xbfe3b5ed53bb2126	-0.6159578929300877
66	0x3fe3b47c89dfe7f6	0.6157820408691339
67	0xbffc80bdda99137a	-1.781431058786636
68	0x3fe49028624171c5	0.6425973815017235
69	0x3f851cf59bb0d8ef	0.010309141935163938
70	0x3fbab97bb4d9446c	0.10439274945498916
71	0x3fcb9a6d41828290	0.21565023134919103
72	0x3ff733c94e5c93eb	1.4501431523324253
73	0x3fe45ad6dbe8772a	0.6360887808875522
74	0xbff587df8f8acafe	-1.3456721884837743
75	0x3fc6e712dbbc1f65	0.17892680863610191
76	0x3fc39350dd894cda	0.15293322388843117
77	0xbfea5c15a5105baa	-0.8237407897857925
78	0xbfdef9cc8f8ed692	-0.4839965249951571
79	0xbfe2e33eaa260e9f	-0.5902398417678859
80	0x3ff115d05afc3699	1.0678256563291255
81	0xbfb22976d45f7191	-0.07094519314654792
82	0xbffa065738e607c1	-1.6265480253791653
83	0xc001993a44ea8464	-2.199818170935531
84	0x3fbed01b4d7a7e4a	0.12036295548977552
85	0x3fe6e98b5eba59fe	0.7160088396220201
86	0x3ffc674efe06e11b	1.7752218172955228
87	0xbfe6ed0d2c81c5c1	-0.7164369458461622
88	0xbfb2a31c1e07c439	-0.0728013585392241
89	0x3fdba68d399f3be2	0.4320405066218297
90	0xbff066f947e40512	-1.0251400764685212
91	0x3ffba4d13376b5ff	1.7277385721494054
92	0xbfca43f1cb2d6298	-0.20519850178495314
93	0xbfe59921b3386513	-0.6749428272625287
94	0xbfdd7c91d50589d9	-0.46072812846082695
95	0x3fe501c02afe9708	0.6564637031303571
96	0x3fc1eb2b9c48d92e	0.1399893296344969
97	0xbfe41c292d9351f5	-0.6284376039644132
98	0xbfe241265b856181	-0.5704528605956939
99	0xbfd32618f0eed7b8	-0.29920028236972085
100	0xbfdc4abc6a047842	-0.4420615229918249
101	0x3fd302b4d2be0767	0.2970401819258001
102	0xbffc0dc860e59755	-1.7533649239571407
103	0xbfd73795030a49d4	-0.3627674607934328
104	0x3f9fc6be677e1ead	0.031031584803285984
105	0xbffac3bb66d106b3	-1.6727861419935095
106	0xbff02d63c6caf986	-1.011081482443474
107	0x3ffb08ffda95ad6f	1.6896971262420626
108	0x3fb8dfa36289c140	0.0971624484607263
109	0x3fb5db80dcfa0d4c	0.08538060564938127
110	0xbfc7e7080d757e1d	-0.186738020488506
111	0x3fd39be55ddc3e1a	0.30639013448760155
112	0xbff6b283f51b9414	-1.4185828756828913
113	0xbffe4ba19772d596	-1.8934646526298358
114	0x3fdfd0574539a6e6	0.49709111938737605
115	0x3fd594bf77d6ddd8	0.33720385268267483
116	0xbfd1002d75a061da	-0.26563583838426796
117	0xbff64add22b57ea0	-1.3932772975748904
118	0xbfed941a36dbec2a	-0.9243289061990982
119	0x3fd700b4ab44524a	0.3594180748489505
120	0xbf83ebc0c19a8c98	-0.009727006824795034
121	0x3fc17ac1ce65c99b	0.1365587480355089
122	0x3fe6e6d325fa1397	0.7156768552527976
123	0xbfeea84d382956ef	-0.9580446335700951
124	0x3fbd08c87902ec8c	0.11341526941662233
125	0xbfeca2c233a27b32	-0.8948679932108006
126	0xbfe554b0cfdab078	-0.6665882167485639
127	0xbff1d79621e165ea	-1.1151334117370149
128	0xbff04a0b0faab067	-1.0180769550306878
129	0xbfc2994456dd0605	-0.1453023361337246
130	0x3fd47c03b8b072f3	0.32006924663600883
131	0xbff7fef7a8aed868	-1.499747904699257
132	0xbfff7626d370525b	-1.9663456210447723
133	0xbfcd30645491b08f	-0.2280393040595112
134	0xbff552d55c9b8580	-1.3327230088692374
135	0xbff7421bf259ba17	-1.4536399332824936
136	0x3fed077477c7818e	0.907160028404222
137	0xbfcfd038ed23b7c1	-0.24854194239691021
138	0xbfee8a3442a45240	-0.9543706227874011
139	0xbfdd09756b0800e4	-0.45370231106063685
140	0x3fe77fb083383f79	0.7343370974431159
141	0x3fd2eac4ad7e630f	0.29557911818260235
142	0xbfd196207592294a	-0.27478801232850414
143	0x3fe0d85797e3e03a	0.5264089552501965
144	0xbff4b040db4cd8ab	-1.293030602113087
145	0xbfe2060e635a4a43	-0.5632392826540314
146	0xbfa9a20f0acfff4a	-0.05006453520763772
147	0x3fc3f8654f8e7397	0.15601793655960414
148	0x3fd8d431a24b548f	0.3879512867836831
149	0xbfddceda8aaeaf2f	-0.46575034659575726
150	0x3fe083ee3956f6ff	0.5161048049846783
151	0x3f9fc18cb1bc3958	0.031011770580385928
152	0xbfc9e92b49c01ae0	-0.20242825604528658
153	0xbfd0e5c8ae34a72c	-0.26402489673874885
154	0xbfd5e6ed6e6295ab	-0.3422196939448791
155	0x40085967a90bf423	3.043654747655198
156	0xbfedf6e77c779434	-0.9363896780965946
157	0x3fb611499480e9ea	0.08620128512931272
158	0x3fe8a6cf5d3bddfd	0.7703625508283377
159	0xbfd28ebb7ee82fe8	-0.28996169465312827
160	0x3fd362bfd68e7a0b	0.3029021830824667
161	0x3fec7a86be850e6b	0.8899568291748897
162	0x3fe7279992d3a77b	0.723583971758884
163	0x3fdcbe14e1338fdd	0.44910165779424266
164	0xbff458ba8bcf984b	-1.2716622792591064
165	0xbffb35ca1479d6e8	-1.7006321716157178
166	0x3fc817f35e82703c	0.18823091616366294
167	0xbff3703307b19c87	-1.2148924160517554
168	0x3febfce702ddd6eb	0.8746218734729302
169	0x3fd085a9cfff7b93	0.2581581622343318
170	0xbfe366cb004af218	-0.6062979703634168
171	0x3fd40a2ff4f2440b	0.3131217853597838
172	0x3fecd82f26d2f8e4	0.9013896711619762
173	0x3fd1f62b5aa14aa6	0.2806499848422085
174	0xc0084ab9826579d3	-3.0364866435258846
175	0x3ff16eca6a3b9584	1.0895485067097477
176	0x3fcee4e955dfb5f7	0.24136082356510233
177	0x3f8ad31be40d5cf3	0.013097970864392105
178	0xbfe6e4a98790c1d3	-0.7154128692400782
179	0x3faa23e80a8d5464	0.0510551941758102
180	0x3fe8541d3c9a1716	0.7602678474074505
181	0x3fc78755b3d1e035	0.18381758957161912
182	0x3fee8af8b76fa605	0.9544643004166465
183	0xbfcff30046c5ae27	-0.24960330444024345
184	0x3fe9b50536e01994	0.8033472129616706
185	0xbfeaf28d903c5908	-0.842108518324296
186	0x3fe7b5e8853fd7db	0.7409556009795283
187	0xc0023413535e7a86	-2.2754274857719023
188	0x3fd3860bfd89e795	0.30505656966817557
189	0x3fe1d4589db12417	0.5571711616440805
190	0x3ff4d51f2fad0bca	1.302031694635604
191	0x3fd63640c1ea1f22	0.34706133782354887
192	0xbff284f64e456dea	-1.1574614579648093
193	0xbfe05827895690f1	-0.5107610399614072
194	0x3f8f9e653b7bfd69	0.015438834073846679
195	0xbfb5bc06b767447c	-0.0849003026735477
196	0xbfd3b2b3fe6c03d3	-0.3077821716870492
197	0x3fbc93379783d0a3	0.11162135552496237
198	0x3ff0b8c2271244d6	1.0451070333695518
199	0xbfebe05fc209fc1c	-0.8711394109558372
200	0x3feda6d50b627f96	0.926615259395464
201	0xbff273c5eba05797	-1.1532649234918375
202	0x3fc700c472fd27eb	0.17971091856662666
203	0xbff2c5fb9e57b68c	-1.1733356652506783
204	0xbfcd0596e9e33ede	-0.22673307819649485
205	0xbfce5728624c0c04	-0.23703484344159176
206	0x3ff26b192e502bbd	1.1511470612629033
207	0x3ff89b95f21cef61	1.5379847962894575
208	0x3fe54a8a71a364ad	0.6653492183205764
209	0x3fa203848cb85394	0.03518308847211596
210	0xbfe23d7be8cb8a72	-0.5700053736475879
211	0xbfe10042b635eb19	-0.5312818106461662
212	0x3fea669ebc9d10fb	0.8250268634660921
213	0x3ff8b8caef72a484	1.5451154092245654
214	0x3fc723aea1ee5ee7	0.1807764330558179
215	0xbfd7730128678103	-0.36639431901677727
216	0x3fd7804321303812	0.36720350495386456
217	0x3fd599ce46c68557	0.3375125590483398
218	0xbfc869d696f35a15	-0.19072992678293646
219	0x3fccfbfe1ed90a5b	0.2264402056335538
220	0x3fe25b45fb89efa0	0.5736417687289652
221	0xbfe09a5f1417036c	-0.5188441650753766
222	0xbfea3f43653b6931	-0.8202225663365309
223	0x3fcc47492d9179f3	0.2209254715443901
224	0xbfe247b104cc2e46	-0.5712514013006931
225	0x3fe9610b00e687dc	0.7930960671985718
226	0xbfda61958e8d4a63	-0.41220606728635384
227	0x3fe4815b330ef051	0.6407905575974927
228	0x3fd79f4fcf8786a9	0.36909861818831274
229	0x3fe2746bb140b24a	0.5767115079848477
230	0x3fd3aa783309dbb6	0.3072796343253076
231	0xbfe7773e02f9c682	-0.7333059366339543
232	0xbfe73693f6d2c618	-0.7254123516815438
233	0xbfef34e53a93d1e6	-0.9752069610681786
234	0xbfe9d71d415a8064	-0.8075090671955079
235	0xbfe931791b280113	-0.7872891931911304
236	0x3ff074299cf581e4	1.0283599978648619
237	0xbfca083b69b2d209	-0.20337622319279117
238	0x3feadee4a697ed44	0.8397086385515782
239	0x3fa2d670da63c09c	0.03679230371369721
240	0x3fda9b3d6b3bcb07	0.4157250926211166
241	0xbfc4a7751f56a09e	-0.1613603976268267
242	0xbfead163e05d28ab	-0.8380603201014954
243	0xbff75258ccc089ca	-1.4576042173508648
244	0x3fedc3fe45d3666f	0.9301749576363373
245	0x3fd71b8997bfd1a6	0.3610557538916289
246	0x3fdf50d26f7de09f	0.4893079842363565
247	0x3fc092630c955512	0.12946737398548486
248	0x40000747e2386f19	2.0035550759765894
249	0xbff53f93c35d0fc9	-1.3280217772853453
250	0x3fe982f5ef91d053	0.7972364119618852
251	0xbfd3086520afccc2	-0.2973873919683677
252	0xbfffafe1f2abb9c6	-1.9804400901153811
253	0xbfe41d5899b9706b	-0.628582287066377
254	0xbfaa3612a0994077	-0.05119379244263283
255	0x3ff5f7d182e8852a	1.3730025399784815
