HW2/saved_params_40000.npy (npy, 836528 bytes, 1 tensors)

array f8 [104550]
-0.5847806135346832 0.10939744662752855 -0.13738401472396597 0.5408008612865395 -0.46144681302615725 -1.156460564976779 -0.6687399292317665 -0.1788580283473523
0.7640243190186224 -1.0235850468607106 -0.12821395927469292 -0.11425545812522596 -0.9367111933369403 0.8666867748214393 0.23408060012311502 -1.1493489789226625
-0.28195602279274834 1.2082696023486768 0.6062377208858741 1.1890498514746541 -0.49804438989792765 0.8294624309058188 0.8570468227505575 0.29430976432186634
-0.7314836721565204 -1.4648906410932958 -0.23462819547450237 -0.37543589975863406 -1.7041528014542073 0.7417103187339656 -0.16434509268400208 0.9400498174110663
-0.8205162889714498 0.004277041374345064 -0.9714686572023461 -1.2932392605990384 -0.2899208473237518 -0.32902704866054955 0.6837243058866976 -0.20532738117095845
0.9758789689156628 0.21014205406234646 1.119934373082206 -0.23142848833031435 -0.2416497830967234 0.4414902409062119 0.2864723557895311 -0.12860085515309214
-0.7507016117337814 -0.007363847087792727 -0.25024903084887123 0.24138313912975362 0.7894267116898275 1.0482857948967648 -1.489311575927822 0.11643250101671176
0.1606217749836297 -0.20754013199122417 -0.28295612922461805 0.5435649315878087 -0.21401002760777088 0.10504020380338254 0.1351988645152789 0.2935615257787486
-1.3678599003927645 -0.6446541857379063 0.6458419190230181 -1.734799747256017 0.5765547286785287 -0.1020375245972596 0.16195819318362892 0.04052668113377792
1.4482417114072184 1.0371595701881098 -1.2899171378812864 0.15476364217181152 0.07259888561898353 -1.4231543337292687 -0.45124910309139915 -0.6115642980568196
1.0279480637652598 0.035325134347573874 -1.61397650408151 -1.9963053165724387 0.09389857802031241 0.7297446090388884 1.6717568422458016 -0.7675748885057262
-0.11095035432329033 0.5180392665036757 -0.9113013781752507 1.6125904059024885 -0.0640656417130715 -0.6678257945602413 -0.42087972128910556 0.635710777018688
0.2805404968084669 -0.7162297905765302 -0.5497761487604904 -0.28522327336741227 -0.17728118330067502 0.259144427531443 -1.813681178330901 -0.4367344949106561
0.15657616692345064 -1.7586347930538777 -1.249601556093437 1.6001658857514136 0.059161517817153425 0.07282061012952033 -0.2878629693101996 -0.09813818461693372
-1.3146115433821743 -1.956434999451974 0.3467621227935021 0.30362716316729943 -0.06740608402559053 -1.3888051045026548 -0.8828065799378074 0.2310399223422672
-0.06866501784060382 0.1104984923790967 0.6268889668105216 -0.9642559162953449 0.150885840282745 -0.9216251781147003 -0.6380277224481936 -1.1999606619355065
-0.9363986310040905 -0.2584473124341544 0.3255361192694431 -1.4959467648258962 -1.9600214545934074 0.07652620762740917 -1.2852860431943247 -1.4146651149311982
0.9010413067284054 -0.04748573835009082 -1.0464624675549536 -0.4698562796356516 0.873069773262964 0.3668751792316785 -0.31161164972252503 0.5036569644145059
-1.4517836281001129 -0.46962847420005205 -0.02769118998362818 -0.0473715500496344 0.35149698798180196 -0.49650758760883873 0.6574056894279369 0.0041098344588306095
-0.20834226252674876 -0.2946336751349889 -0.23360537161006148 3.104081158462791 -1.006322550411873 0.2171403523278634 0.8453104816980267 -0.2705271153313752
0.14467509976701123 0.7909331116253407 0.8029169165810922 0.36316858117763967 -1.4180873611553364 -1.725807864365272 0.11243249288411748 -1.1456065977658914
0.9315363744151479 0.17632232464604372 -0.6314066381624944 0.37010236025435195 0.8261585847512568 0.5334611462398443 -3.003501814758662 1.0184716739221968
0.2925721649144455 0.07384080262044543 -0.5959304625249436 0.03548774254153276 0.8107476650198185 0.08872372170362236 0.8962184687334176 -0.30739839027859417
0.8637930908842749 -0.7913669093272475 0.9289689837981069 -2.294814251797553 0.27436469559614296 0.4467222758752001 1.3297197610333489 0.33909576647607775
-1.0860864725068395 -0.5641998804702987 0.010706081497671133 -0.09674210145784405 -0.2603709124646648 0.06095017048967578 1.06671818703121 -0.8651938217539372
0.8084205656443744 -1.1044112458011481 0.20650117466041784 -1.2020159575341998 -0.1746873087639265 -0.28540329383329754 1.243111447927858 1.4684294341867574
0.7904258835660355 0.16923926597956232 -0.6151850095711887 -0.698982558221126 0.7783643467852341 1.5145285638412087 0.2939177103412021 -0.4270345229139152
0.4314975092556931 0.29787697095928406 -0.24800486114259304 0.14161781679117919 0.6114574393854203 -0.7331118604351154 -0.9622902069039881 0.4692365408718468
-0.6504710941305837 0.9005297630143202 -0.3497351929653603 0.8263051603920564 0.32274246542040363 0.6489969357716004 0.3363764036920979 -0.6072361014885538
-0.6973020609103269 -0.7258015542414437 -0.7376356403100119 -0.7991703171270843 1.1095057028514381 -0.2584001456371847 0.8333554128200834 0.1455936296664266
0.6102877422406534 -0.029143362601130336 -0.9042490705517123 -1.3758340794717663 0.9293621229751278 0.34782744508747787 0.5393303466713489 0.20580319622381033
1.9891555886359742 -1.2715487216211003 1.014438495889292 -0.21146708380212034 -1.8961370771783475 -0.639701221105615 0.008856953854648372 1.499125643899566
00000000: c3eb 4ed5 85b6 e2bf d5f8 8797 7801 bc3f
00000010: 5fc6 1da5 cc95 c1bf 6dfa 9b9b 3d4e e13f
00000020: 039c b236 5888 ddbf ef05 1bcb dc80 f2bf
00000030: a78d b247 5166 e5bf 6b80 30e3 d1e4 c6bf
00000040: b213 f120 e372 e83f e40f cfb6 9a60 f0bf
00000050: 98dc fca4 5069 c0bf 4f8f 0980 d83f bdbf
00000060: c2bc a5c0 89f9 edbf 467b 37e7 e5bb eb3f
00000070: 1713 1465 5af6 cd3f 0b9f 42c1 bb63 f2bf
00000080: 8286 3346 910b d2bf 766a ad81 1255 f33f
00000090: 13ce 19a6 4c66 e33f 545b 1623 5906 f33f
000000a0: 0458 a493 f5df dfbf 6f09 c0cb f48a ea3f
000000b0: dd56 5b75 ed6c eb3f fff9 299f f8d5 d23f
000000c0: 370c 2f72 5068 e7bf 1665 3b2b 3170 f7bf
000000d0: 6628 24f5 4b08 cebf 6d4a cd4b 2407 d8bf
000000e0: 231f 5aba 3544 fbbf 072e 4247 17bc e73f
000000f0: 0bfe 2a8f 4209 c5bf 8a85 cc5a e314 ee3f
00000100: 17f7 5e60 ab41 eabf a024 398d cd84 713f
00000110: 54bd f86f 4516 efbf 45d1 a2a6 1bb1 f4bf
00000120: acc8 6b2b 108e d2bf 04c6 5f77 c70e d5bf
00000130: f56f a8cb 11e1 e53f c221 8de9 2a48 cabf
00000140: 661a 0b88 663a ef3f 3124 db50 efe5 ca3f
00000150: 91de 204e 40eb f13f c7e6 5ede 729f cdbf
00000160: a532 be4d 61ee cebf 7a80 8c48 6041 dc3f
00000170: 42be d425 9055 d23f 8761 8f29 fe75 c0bf
00000180: 416f ee62 bf05 e8bf a314 a3a6 8d29 7ebf
00000190: 9180 d682 1404 d0bf 381e 2f88 a4e5 ce3f
000001a0: fe7d a9ce fb42 e93f 6616 5f53 c7c5 f03f
000001b0: a1a0 0260 38d4 f7bf 60ea 0e38 85ce bd3f
000001c0: b342 4a1b 418f c43f 2642 c1cf ac90 cabf
000001d0: 2f3d 4e06 f41b d2bf f981 8d48 e264 e13f
000001e0: 14b4 cb3a ae64 cbbf a9c7 1930 eae3 ba3f
000001f0: a254 c646 324e c13f 7a59 2548 b6c9 d23f
00000200: da25 1b10 c1e2 f5bf 8329 9fd0 01a1 e4bf
00000210: 2ddf 12ac bcaa e43f b52d 3961 bdc1 fbbf
00000220: efe8 00e7 2273 e23f a22a 1c97 211f babf
00000230: f07e 85cb 0bbb c43f a584 2bc4 e9bf a43f
00000240: 3627 3380 ff2b f73f c30f 2ba2 3498 f03f
00000250: 3200 1c27 80a3 f4bf 796f de86 4bcf c33f
00000260: f8a6 752f d795 b23f 3172 887a 3dc5 f6bf
00000270: ff1e 08eb 43e1 dcbf 7fc4 714a ef91 e3bf
00000280: a7bb 3dab 7972 f03f 4dd0 7fd1 2216 a23f
00000290: 10ae d806 d9d2 f9bf 1f27 f8d7 ddf0 ffbf
000002a0: 27f7 bcb9 bc09 b83f 7c23 c85d 115a e73f
000002b0: 8df5 441a 84bf fa3f 359d 6b36 f98f e8bf
000002c0: 2d53 4c0f 3e67 bcbf eeaa 7515 c793 e03f
000002d0: 6dff 0182 6129 edbf e41c f398 2bcd f93f
000002e0: 0874 f41b 9b66 b0bf 68f7 6133 d45e e5bf
000002f0: 981f 9f7f b1ef dabf 0752 a020 be57 e43f
00000300: c5bd bf20 60f4 d13f dc4e debc 5aeb e6bf
00000310: 2682 6126 c497 e1bf 5cf3 ca1d 1941 d2bf
00000320: 857d 3c5a 26b1 c6bf 4d0b 4c82 d295 d03f
00000330: d8d4 248e d604 fdbf 4249 2b3d 75f3 dbbf
00000340: 0777 2216 b00a c43f d962 9c3c 5e23 fcbf
00000350: 7b3b 8733 5efe f3bf 96a2 378b 479a f93f
00000360: a4ac 6920 6b4a ae3f 7f26 fb1a 5fa4 b23f
00000370: 2eac bacd 586c d2bf 7a25 6b85 951f b9bf
00000380: 1154 1c1d a608 f5bf 0b56 36c9 8e4d ffbf
00000390: a9ef 38c2 5931 d63f 8ac5 fe9f a06e d33f
000003a0: 9efb 706e 8641 b1bf 4fb5 85b3 8b38 f6bf
000003b0: 07d9 b095 f33f ecbf b7e4 4357 b792 cd3f
000003c0: bd30 01d6 0794 b1bf d888 0613 a149 bc3f
000003d0: d994 5573 790f e43f 0fd1 2e39 2fdb eebf
000003e0: b4d0 b82a 3a50 c33f af87 e515 f47d edbf
000003f0: 4667 3b1d b96a e4bf 01fe 77f3 0933 f3bf
00000400: d1d0 0543 faf6 edbf d033 a998 668a d0bf
00000410: f574 7b72 95d5 d43f 65bf f7df 65ef f7bf
00000420: 17fe ee74 3f5c ffbf d2ef 0bb7 3897 b33f
00000430: dc65 1819 8890 f4bf c8be 36e3 77a2 f6bf
00000440: 9fcb 1794 54d5 ec3f 3ce8 7afa 0c50 a8bf
00000450: 633d aa6d 4fbe f0bf 20be b612 2012 debf
00000460: 504c 6905 30f0 eb3f 9de8 2008 e27a d73f
00000470: 3518 27fd 71f1 d3bf 9803 d235 f51d e03f
00000480: 6fee 3878 813a f7bf 246a 7d96 640e debf
00000490: 5fd0 774d 145b 9cbf 09b1 7274 1541 a8bf
000004a0: dc8e 0139 ed7e d63f 78bb bfc2 c7c6 dfbf
000004b0: a983 09a8 7709 e53f f57f 7b49 79d5 703f
000004c0: fea8 f691 f5aa cabf ff52 c033 47db d2bf
000004d0: 1919 9ee3 c7e6 cdbf e2d1 9d80 28d5 0840
000004e0: def0 b3ac e519 f0bf 7fee f14b 41cb cb3f
000004f0: 2f7d 3b91 c80c eb3f f2e2 41f6 5050 d1bf
00000500: a9bd 05b3 b684 c23f af23 f8f4 524f e93f
00000510: d5de 43d1 7eb1 e93f 87ee c56e 273e d73f
00000520: 9f87 705f 7cb0 f6bf 1e0e 0ab5 e89c fbbf
00000530: f7ed f137 60c8 bc3f 02c8 7795 6754 f2bf
00000540: 16b8 e45e 25cf ed3f f168 f4dc ba91 c63f
00000550: b753 acb1 7b34 e4bf 22c0 5dcf c1af d73f
00000560: 111f da20 e46f ea3f 812d 191c 1d12 e13f
00000570: bbeb 9ef5 2b07 08c0 135f 36f4 a84b f03f
00000580: f0c1 019a 80b9 d23f 067e 5d18 3be7 b23f
00000590: 5f83 e7c2 dc11 e3bf 61df 3f0b 732b a23f
000005a0: 0531 5216 a5f1 e93f d4b1 180b 99b6 b63f
000005b0: d0ff a85a d2ad ec3f 1cbc 454c 6aac d3bf
000005c0: 9b7a 7b68 31a4 eb3f da4e 56b2 e052 e9bf
000005d0: bd28 8d29 1dba ed3f eeeb 0e93 c75b 02c0
000005e0: a4cb b0f0 308f d13f ccd5 5107 1997 dc3f
000005f0: 0fbb 673a 8846 f53f 0284 ceba beb3 d53f
00000600: d3b7 8035 9c60 f1bf 87dd 60e8 ec0d e2bf
00000610: f0da 34ef 11ed 853f 9362 e821 17c4 b8bf
00000620: f262 77c2 eaa9 d0bf 01a8 e059 dc34 af3f
00000630: 308f f516 4711 f13f 1e4d 24f4 aaaf ebbf
00000640: b467 5bce 94de e93f 0ccf 6020 abab f1bf
00000650: 1c44 e067 a16e ca3f 7c12 ae15 753b f3bf
00000660: b16a 155b 275c c6bf fcd1 4b2d 0c44 d2bf
00000670: 3b22 62d4 c8e3 f33f f50d c5dc af7e f73f
00000680: 317f fa38 2b4b e93f e966 4adc a1a9 c53f
00000690: 6120 2379 98af e3bf c617 81ab 105e e6bf
000006a0: 5814 ba58 5ce8 e83f b8e4 a84d 823b f83f
000006b0: cd5c 683a 8ccf d23f 1868 8b9b 8854 dbbf
000006c0: 12c1 a3ba a79d db3f 4f1b 2092 6a10 d33f
000006d0: 6da0 ed8f 9fbe cfbf 8e13 d359 8820 c23f
000006e0: 11cd 2131 0f91 e33f fa1c 1c01 a775 e7bf
000006f0: 0d3d fdd4 14cb eebf f77e 48b3 f807 de3f
00000700: 1f18 89c1 a8d0 e4bf 8b13 27cb 23d1 ec3f
00000710: 65f9 02b8 0f62 d6bf 1ecc 0c85 1771 ea3f
00000720: f4b4 8003 d0a7 d43f cbfb ca38 95c4 e43f
00000730: df3b 40e5 3087 d53f 0701 9b67 7a6e e3bf
00000740: 5662 6169 4c50 e6bf 894b 5b2e c439 e7bf
00000750: 4edb ef0e b69a e7bf 34d5 ffa0 cd92 e9bf
00000760: 098f 470d 89c0 f13f 2cc6 b2c3 a089 d0bf
00000770: 0338 80f8 d8aa ea3f a72c f6e2 cfa2 c23f
00000780: 5858 c228 7a87 e33f 75bd 11f5 c1d7 9dbf
00000790: f2a7 2ebf 9bef ecbf 24db 8098 6a03 f6bf
000007a0: bd37 8aa2 55bd ed3f 3453 530b ce42 d63f
000007b0: 7f33 16b7 3142 e13f cac5 9856 c257 ca3f
000007c0: e18d 7dcf 94d3 ff3f ba21 ea78 4358 f4bf
000007d0: f65d 3adc 233b f03f 1528 8e78 5a11 cbbf
000007e0: ab6c f3d4 9356 febf 2684 fbb1 6e78 e4bf
000007f0: 0be4 2e39 9823 823f 184c d22b 6bfc f73f
