HW2/saved_params_15000.npy (npy, 836528 bytes, 1 tensors)

array f8 [104550]
00000000: 1872 cd35 6852 efbf 290e 5f7e 980d b53f
00000010: bf27 4075 fea2 a93f 1a1f e9aa 3fcb ec3f
00000020: c0b8 b039 31db e2bf 29ac 5ced ea57 f2bf
00000030: a257 6f52 cf76 e5bf 6223 d8a0 832d c4bf
00000040: 331a 9f03 fc47 e83f 78ae faa6 656a efbf
00000050: 4579 49a1 3e41 d2bf e3b8 b8be e422 d9bf
00000060: 1c29 8a51 8e55 ebbf 6824 aed6 d65e e93f
00000070: a3a2 42c5 ce1a c83f 2c83 fb98 db57 f2bf
00000080: 8c05 fd7f 6304 c7bf c88e ca72 1796 f23f
00000090: e85f 3036 a26b e03f 3fdb a069 08a4 f63f
000000a0: c36b 4128 e334 e3bf b260 0bcf 3cab e23f
000000b0: 0fa6 256f 6cbf e93f fe52 7aa5 9706 cf3f
000000c0: 9b29 de36 c523 e8bf 5c81 6f34 c04a f7bf
000000d0: 6917 c46c 405c b0bf 6e5c c52b 843c debf
000000e0: 6269 dac5 6fde fbbf 38ef 84c5 8185 e73f
000000f0: cbfd ccfa e3a3 ccbf 87d9 e8f1 11e8 e53f
00000100: 35d2 0219 673b e9bf f4f1 7c64 7a44 d43f
00000110: d6d9 92af 4e31 f0bf 8f3c 5d66 7957 f2bf
00000120: e0f8 a42e 8810 cbbf de55 85d3 6022 c7bf
00000130: 365c dfd2 61bf e93f 232e 319b 40be bebf
00000140: 8539 7471 d4a7 f03f 4c57 4947 9103 bdbf
00000150: e1e9 f1b2 abb4 f73f 3645 a065 5f79 c6bf
00000160: 7e6c 1646 cd3f 72bf b155 a9e3 e242 e13f
00000170: 29f6 4d32 88ec d23f fe63 359f 2e61 ac3f
00000180: b83a 0fca 353e edbf 54c3 b1c6 c320 a53f
00000190: 1681 c677 e451 c7bf 887b f278 8c2e cb3f
000001a0: d6a0 181c 0ada e73f 23a4 df14 af32 f03f
000001b0: e333 199f eeec f6bf ca67 7634 97aa d73f
000001c0: 0e2f 05e1 13d5 b2bf 11f8 fb31 223e d0bf
000001d0: e8ff 879a 6c69 e1bf 23fb 247a f606 db3f
000001e0: 3a58 2794 fc6c e1bf e48b 879c dbb2 cb3f
000001f0: acc9 3904 a635 963f f8f1 aeb9 3f6a d53f
00000200: 0e4a ebbd bc01 f8bf 28da 387e 1217 e4bf
00000210: 1e13 f2c4 a8bd e23f 5a48 3cea f2b2 fcbf
00000220: c64f 3429 f778 e23f 570f 074d cd0e c03f
00000230: 48d3 b82e 95c5 bb3f 19b8 24db 6180 cf3f
00000240: 464e eec0 a465 f83f 31a6 6e6f b4b0 e33f
00000250: f27b 2c44 c35c f6bf 44db f53a 3174 c73f
00000260: a80b 3c86 ee38 d13f 7c1b 49c8 6a46 e1bf
00000270: 03c4 7c6f 6f00 e1bf f4f6 726d 77ca dfbf
00000280: 584e 4410 446d f13f 5afa 2a13 3245 c2bf
00000290: aab3 1402 17d8 f9bf 3d45 2fb6 c3d8 00c0
000002a0: 970d 7e99 670f c13f a66e 8985 e845 e63f
000002b0: 9c15 69e3 5c18 fd3f 15de 0134 fbe0 e3bf
000002c0: 680f 15ac fd70 8bbf e1bf 8c8b de82 d83f
000002d0: 39aa d1b9 5411 f2bf cba5 92cf 0be9 fc3f
000002e0: 9b4a 7b2f 94d0 c8bf 4006 2b3c e39b e7bf
000002f0: d5a3 f806 3ee9 ddbf 07a9 b1ab e223 e53f
00000300: 627d 5c16 ddc2 a03f 9bf5 a765 f918 e3bf
00000310: ce2a fe8e 3e54 e3bf 43c7 e14c 5f60 d0bf
00000320: 71c2 995a 03ff e1bf 281a eba2 ddd8 d53f
00000330: b452 03c9 6288 fbbf 5693 2fcf e58e d9bf
00000340: 3799 94c4 eb5a bebf 3a43 75d6 2a2b fabf
00000350: 3cbe 2404 eacd e8bf ed73 0c10 6636 fb3f
00000360: 71c3 7c7b a8e5 c43f c5b6 bc60 2fd8 c23f
00000370: 5234 1f0d ded8 c4bf 249f 1caa 9206 e23f
00000380: 681e 38a5 eea1 f7bf e9b3 b5c5 98cb fdbf
00000390: cf5c 063e aae7 e23f 5d71 b099 6935 d73f
000003a0: d77e adb4 1b3a d6bf d69a 7b45 c7b3 f5bf
000003b0: 8031 ebc8 1109 f1bf 01bf 58fe 38f0 de3f
000003c0: 6149 a4c0 71fd a53f f962 9f04 160c c63f
000003d0: d025 397b 230c e83f 6f78 bf31 3b4b f1bf
000003e0: de16 1fc0 ab0e bc3f 6b30 0681 5290 ebbf
000003f0: 581f 6e03 3226 e8bf 4df2 76ed 50dc eebf
00000400: 7f11 1932 1d9a efbf a0cd 2a7e e8ed 93bf
00000410: dea0 847f fde1 d13f 2348 6631 2803 fabf
00000420: 8df3 85f8 d80b ffbf ce94 a361 ba72 dcbf
00000430: d1d5 7bc4 f3a1 f5bf 518e 1858 111b f8bf
00000440: 73fa f141 1814 ea3f bea4 d232 8341 d3bf
00000450: 0d42 9c31 248e edbf ee32 93a9 ef0d dbbf
00000460: 99d7 31db b95c e53f bc23 76d6 f1e4 c73f
00000470: aa24 88f4 131c d4bf 1733 7531 bbfc e03f
00000480: 91e6 fc09 d395 f3bf bd47 71f0 aa53 e1bf
00000490: b3a9 daa5 b58a c4bf 4c98 3e67 a102 cc3f
000004a0: 6fc6 0fe3 ffc5 da3f 3beb 2836 ef9a dcbf
000004b0: 63e1 db70 4344 e13f 9211 c11d ea66 b53f
000004c0: db70 f3a4 17e2 d1bf 0e00 69fe 194d d0bf
000004d0: 831c f320 5b72 d3bf 1536 233a ff3f 0740
000004e0: 7cc5 3cd5 374a efbf dbd7 67ed 9720 883f
000004f0: f3d7 6da0 f9e6 e83f 08f3 eeee bdbf d1bf
00000500: 8692 2296 8590 d73f be62 0026 9d97 eb3f
00000510: 94e7 8587 e949 e43f 8874 d4c0 1918 e03f
00000520: f8e2 6dd3 e495 f5bf 97e0 5c09 f5ce fabf
00000530: ba1d be23 5932 c43f f4cd 4bb9 d295 f3bf
00000540: 6a4c 152a 9ab1 ee3f 252e 99ec 8c8c d43f
00000550: bdb8 9cc2 2aaf e0bf 9da5 e528 41cd d23f
00000560: 71f7 57fd 7447 ed3f 6aaa 23a7 1803 d33f
00000570: 6d57 53dc 0e9f 08c0 f8d2 7364 4ccd f13f
00000580: cb0c 024b 14f8 d43f 8f56 99b9 2b06 a4bf
00000590: 70d2 e906 da9b e7bf c273 750c 6551 933f
000005a0: d363 c23e a8c8 e83f d562 f686 fc72 ce3f
000005b0: 31be 3354 e04e ef3f cc01 1905 5b17 c2bf
000005c0: bc81 7982 5942 eb3f c476 d5f1 5815 e7bf
000005d0: 4d64 a8f9 eabf e33f 60f3 a842 823e 02c0
000005e0: c93c 1509 2919 cc3f de61 6f8e 2364 e33f
000005f0: 7b46 aef2 9eed f33f f168 1192 5759 cd3f
00000600: 79b5 c596 a432 f3bf 35d6 c865 4d0a dbbf
00000610: 76cc 524f 0582 a23f ccc7 1f96 9a54 a8bf
00000620: 340f 0dab 556b cebf fd31 da1c aa47 b03f
00000630: 015a 0798 976f f03f d40f 0323 d42f edbf
00000640: 6793 6b6a 41f5 f03f 823e 05de 3faa f3bf
00000650: cecd a834 3328 c83f 977e 7183 a8e2 f2bf
00000660: d965 d35b f544 d1bf aaab 27fa dc0b babf
00000670: 7362 753f 5f9c ee3f cd85 ba27 a95b f93f
00000680: 97a5 9b8a d291 e33f 3d31 e871 f6ae bc3f
00000690: acde 0aa5 3b71 e1bf 540f ffe4 1319 ddbf
000006a0: ff50 34f7 4f85 e93f b9c9 6ebc b603 fa3f
000006b0: 2848 e91b d2bf b93f 8787 d642 6fed d7bf
000006c0: 02f3 c997 d93a d33f 05d6 7858 9811 d93f
000006d0: c336 a609 8c7a cabf c1ae af9b 6442 d33f
000006e0: 389f 358c dc79 e23f 10b2 cd7c d0cc d7bf
000006f0: b83d 89fa 62d5 e7bf 3f91 2379 1672 b53f
00000700: 9cac 3ec8 8460 e2bf 9ed7 2f25 20a6 e63f
00000710: f0ad 5ceb 157c d8bf c235 7cb1 9035 e13f
00000720: e0cd 498f 699f d63f 46a6 65cd 185c e03f
00000730: a32f 9264 3b08 d13f ad8f c440 0529 eabf
00000740: 86e4 d3db b517 e8bf f349 3650 3cc6 f1bf
00000750: c0ac ff1d 5981 ebbf 6521 9618 ebe6 eabf
00000760: f02d c158 0dfb eb3f b496 d329 2d96 bfbf
00000770: 4f5d 02aa 86b8 e83f c97d cc04 689a 71bf
00000780: f2c5 b52a 3a1b d73f 803f 7bb0 8400 ccbf
00000790: 7e0a f3d8 e547 e8bf 6026 2239 5eb3 f8bf
000007a0: ded9 9f92 bbc5 eb3f ca80 8056 e724 d93f
000007b0: 6f57 fd6f e20f e23f 4491 4a81 e113 b63f
000007c0: 9c05 1649 56fc ff3f 8850 e070 ff3f f5bf
000007d0: 3ff9 13ca dea3 e33f fe1b fa95 fa16 d7bf
000007e0: 2719 7eab a076 ffbf ae55 c83b c6f1 e4bf
000007f0: f4af 1bb8 3dcb 923f b93a ad9a a30a f53f
-0.9788094569044601 0.08223870358693176 0.05007167035371606 0.8998106325243242 -0.5892568709148449 -1.1464642784074022 -0.6707531557137723 -0.15763898233151524
0.7587871618969245 -0.9817379247010214 -0.2852322173183846 -0.39275473237183983 -0.8541938393184725 0.7928270523999688 0.18831810600137996 -1.1464496589544053
-0.17982143163139275 1.1616434558899744 0.5131388719919387 1.4150470853907817 -0.6002059732667181 0.5834030193173219 0.8046171351281276 0.24238868312809098
-0.7543665000569492 -1.4557497070564613 -0.06390764861506927 -0.47244362139230744 -1.7418058136596177 0.735047231464228 -0.223751542531302 0.6845788693233751
-0.78850130925145 0.3166795712784556 -1.012037931284444 -1.146356010303666 -0.21144201543388075 -0.1807366402451142 0.8046120756724864 -0.12009052075261954
1.0409740859791736 -0.11333568563835889 1.4816090574300846 -0.17557899915895242 -0.00445537743635349 0.5394148298752751 0.29568676865150906 0.055428940710676486
-0.9138440081095132 0.041265600208936576 -0.18218665932091288 0.21235805421471476 0.7453661488298404 1.0123740020155843 -1.4328447546752094 0.36978702662747465
-0.0735638069501727 -0.2537923324706535 -0.5441191690624665 0.4222999756638492 -0.5445540326716192 0.21639580863038 0.021689027793806367 0.3346099198641066
-1.5004241389002604 -0.6278164353632905 0.5856517645448525 -1.7936886930297278 0.5772662930271444 0.12545171986686895 0.10848362341569129 0.24610541534770006
1.524815324436433 0.6153204132471669 -1.3976471579587693 0.18323340777325303 0.26909983738749554 -0.5398458396747254 -0.5313031365859618 -0.4967325753058127
1.089176238577144 -0.1427366822808434 -1.615256317261109 -2.1058420403648186 0.13328261370416492 0.696033726514959 1.8184479602071866 -0.6212135329978447
-0.013399106802019126 0.3829876292029422 -1.1292311914973097 1.8068960293115761 -0.19386532133519982 -0.7377792525441649 -0.4673609798506367 0.660630545940223
0.03273669145550674 -0.5967986093016181 -0.6040337364987296 -0.25588209636690723 -0.5623795289557859 0.34136143598553526 -1.7207973339147147 -0.399346782998966
-0.11857484387710292 -1.6355389001148084 -0.7751360016754414 1.7007809283161308 0.16325861005455125 0.14722244475836113 -0.16286826744763744 0.5633023569580229
-1.4770342306018396 -1.862206241897406 0.5907794200346873 0.36263504036630484 -0.347296644633372 -1.3563912119076824 -1.0647142265689524 0.4834120258192201
0.04294925190528676 0.17224383569443782 0.7514817625716947 -1.0808669989851543 0.10959886017289075 -0.8613674659732288 -0.7546625201220918 -0.9643940580350062
-0.9875627497172416 -0.0194622351652477 0.27941834881722893 -1.6257707528752767 -1.9403924663485868 -0.4445024446016078 -1.3520391154428248 -1.5066083375212609
0.8149529731743556 -0.3008735653225577 -0.9236012429192343 -0.422725597000677 0.6675690919062048 0.18667433711769188 -0.3142137420659973 0.5308509794209354
-1.2240782156135632 -0.5414633461134525 -0.16048307989451657 0.21883027592883975 0.41833493398653493 -0.4469564465431863 0.5395829395556969 0.08360160089893601
-0.2794245825623542 -0.25470590443365004 -0.30385473458995466 2.9062485258098243 -0.9778098263542883 0.011780917103333557 0.7781952031498335 -0.2773279984792656
0.3681959119951802 0.86225755140466 0.6340224883017407 0.5029419676026388 -1.349095178504454 -1.6755266538366749 0.15778650517698428 -1.2240779150132512
0.9591799566209265 0.32107852082546834 -0.5213826943416034 0.29377774232724524 0.9149727771871153 0.2970639831752694 -3.077665063184148 1.1126216815875392
0.3276415569782329 -0.03910957947361481 -0.7377748618151383 0.018865183720993668 0.7744942880409503 0.23788410749400293 0.9783784527371094 -0.14133775471601806
0.8518493221600276 -0.7213558886830573 0.6171774746063733 -2.280521889477697 0.21951783126357885 0.6059739858565611 1.245512912723284 0.22928900367953234
-1.1998639955084782 -0.4225038045873107 0.03614822953513734 -0.04752047617502306 -0.23765059330082183 0.06359351353075478 1.0272441805478822 -0.912088459379897
1.0598768384017718 -1.2290648148226926 0.18872680732020658 -1.1803364881997476 -0.26983388869629504 -0.10174351794527917 0.9565883864807588 1.5848781158350562
0.611550589293233 0.11204471856053018 -0.5450723861203719 -0.45465562212870236 0.7975234821520018 1.6259066925673393 0.10058320218493633 -0.3738668587412736
0.3004669172585609 0.39169891967625886 -0.20686483832508004 0.3009273071645389 0.5773756731477766 -0.37187587917176845 -0.7447981732638516 0.08377209146016627
-0.5742820654899279 0.7077789999300312 -0.382573585363132 0.5377887217052193 0.35347975724218195 0.51124229542365 0.2661274416102463 -0.8175073876377518
-0.7528943341741445 -1.1108973630222152 -0.8595395646965684 -0.8406882744030041 0.8743960126388952 -0.12338526030688507 0.7725251503460785 -0.004297643969749251
0.36103681727317316 -0.21876581780679416 -0.7587765919964367 -1.5437910300992357 0.8678872932203452 0.39287742087800537 0.5644390284821678 0.08624085814023369
1.9991057257578637 -1.3281244668224037 0.6137536951862684 -0.3607775177592315 -1.966461820500237 -0.6545134704235147 0.018353428232259675 1.3150974313790995
